{"format": "graph-model", "generatedBy": "2.4.0", "convertedBy": "TensorFlow.js Converter v2.8.1", "signature": {"inputs": {"input_1:0": {"name": "input_1:0", "dtype": "DT_FLOAT", "tensorShape": {"dim": [{"size": "1"}, {"size": "3"}, {"size": "320"}, {"size": "320"}]}}}, "outputs": {"Identity:0": {"name": "Identity:0", "dtype": "DT_FLOAT", "tensorShape": {"dim": [{"size": "1"}, {"size": "1"}, {"size": "320"}, {"size": "320"}]}}, "Identity_1:0": {"name": "Identity_1:0", "dtype": "DT_FLOAT", "tensorShape": {"dim": [{"size": "1"}, {"size": "1"}, {"size": "320"}, {"size": "320"}]}}, "Identity_2:0": {"name": "Identity_2:0", "dtype": "DT_FLOAT", "tensorShape": {"dim": [{"size": "1"}, {"size": "1"}, {"size": "320"}, {"size": "320"}]}}, "Identity_3:0": {"name": "Identity_3:0", "dtype": "DT_FLOAT", "tensorShape": {"dim": [{"size": "1"}, {"size": "1"}, {"size": "320"}, {"size": "320"}]}}, "Identity_4:0": {"name": "Identity_4:0", "dtype": "DT_FLOAT", "tensorShape": {"dim": [{"size": "1"}, {"size": "1"}, {"size": "320"}, {"size": "320"}]}}, "Identity_5:0": {"name": "Identity_5:0", "dtype": "DT_FLOAT", "tensorShape": {"dim": [{"size": "1"}, {"size": "1"}, {"size": "320"}, {"size": "320"}]}}, "Identity_6:0": {"name": "Identity_6:0", "dtype": "DT_FLOAT", "tensorShape": {"dim": [{"size": "1"}, {"size": "1"}, {"size": "320"}, {"size": "320"}]}}}}, "modelTopology": {"node": [{"name": "PartitionedCall/onnx_tf_prefix_Concat_1084/axis", "op": "Const", "attr": {"value": {"tensor": {"dtype": "DT_INT32", "tensorShape": {}}}, "dtype": {"type": "DT_INT32"}}}, {"name": "PartitionedCall/transpose_497/perm", "op": "Const", "attr": {"value": {"tensor": {"dtype": "DT_INT32", "tensorShape": {"dim": [{"size": "4"}]}}}, "dtype": {"type": "DT_INT32"}}}, {"name": "PartitionedCall/split_236", "op": "Const", "attr": {"value": {"tensor": {"dtype": "DT_FLOAT", "tensorShape": {"dim": [{"size": "1"}, {"size": "1"}, {"size": "6"}, {"size": "1"}]}}}, "dtype": {"type": "DT_FLOAT"}}}, {"name": "unknown_236", "op": "Const", "attr": {"value": {"tensor": {"dtype": "DT_FLOAT", "tensorShape": {"dim": [{"size": "1"}]}}}, "dtype": {"type": "DT_FLOAT"}}}, {"name": "PartitionedCall/transpose_498/perm", "op": "Const", "attr": {"value": {"tensor": {"dtype": "DT_INT32", "tensorShape": {"dim": [{"size": "4"}]}}}, "dtype": {"type": "DT_INT32"}}}, {"name": "PartitionedCall/Const_371", "op": "Const", "attr": {"value": {"tensor": {"dtype": "DT_INT32", "tensorShape": {"dim": [{"size": "4"}, {"size": "2"}]}}}, "dtype": {"type": "DT_INT32"}}}, {"name": "PartitionedCall/transpose_438/perm", "op": "Const", "attr": {"value": {"tensor": {"dtype": "DT_INT32", "tensorShape": {"dim": [{"size": "4"}]}}}, "dtype": {"type": "DT_INT32"}}}, {"name": "PartitionedCall/convolution_105/SpaceToBatchND/block_shape", "op": "Const", "attr": {"value": {"tensor": {"dtype": "DT_INT32", "tensorShape": {"dim": [{"size": "2"}]}}}, "dtype": {"type": "DT_INT32"}}}, {"name": "PartitionedCall/convolution_105/SpaceToBatchND/paddings", "op": "Const", "attr": {"value": {"tensor": {"dtype": "DT_INT32", "tensorShape": {"dim": [{"size": "2"}, {"size": "2"}]}}}, "dtype": {"type": "DT_INT32"}}}, {"name": "PartitionedCall/split_210", "op": "Const", "attr": {"value": {"tensor": {"dtype": "DT_FLOAT", "tensorShape": {"dim": [{"size": "3"}, {"size": "3"}, {"size": "16"}, {"size": "16"}]}}}, "dtype": {"type": "DT_FLOAT"}}}, {"name": "PartitionedCall/convolution_105/BatchToSpaceND/block_shape", "op": "Const", "attr": {"value": {"tensor": {"dtype": "DT_INT32", "tensorShape": {"dim": [{"size": "2"}]}}}, "dtype": {"type": "DT_INT32"}}}, {"name": "PartitionedCall/convolution_105/BatchToSpaceND/crops", "op": "Const", "attr": {"value": {"tensor": {"dtype": "DT_INT32", "tensorShape": {"dim": [{"size": "2"}, {"size": "2"}]}}}, "dtype": {"type": "DT_INT32"}}}, {"name": "unknown_210", "op": "Const", "attr": {"value": {"tensor": {"dtype": "DT_FLOAT", "tensorShape": {"dim": [{"size": "16"}]}}}, "dtype": {"type": "DT_FLOAT"}}}, {"name": "PartitionedCall/transpose_439/perm", "op": "Const", "attr": {"value": {"tensor": {"dtype": "DT_INT32", "tensorShape": {"dim": [{"size": "4"}]}}}, "dtype": {"type": "DT_INT32"}}}, {"name": "PartitionedCall/transpose_432/perm", "op": "Const", "attr": {"value": {"tensor": {"dtype": "DT_INT32", "tensorShape": {"dim": [{"size": "4"}]}}}, "dtype": {"type": "DT_INT32"}}}, {"name": "PartitionedCall/transpose_433/perm", "op": "Const", "attr": {"value": {"tensor": {"dtype": "DT_INT32", "tensorShape": {"dim": [{"size": "4"}]}}}, "dtype": {"type": "DT_INT32"}}}, {"name": "PartitionedCall/Const_368", "op": "Const", "attr": {"value": {"tensor": {"dtype": "DT_INT32", "tensorShape": {"dim": [{"size": "4"}, {"size": "2"}]}}}, "dtype": {"type": "DT_INT32"}}}, {"name": "PartitionedCall/transpose_435/perm", "op": "Const", "attr": {"value": {"tensor": {"dtype": "DT_INT32", "tensorShape": {"dim": [{"size": "4"}]}}}, "dtype": {"type": "DT_INT32"}}}, {"name": "PartitionedCall/split_208", "op": "Const", "attr": {"value": {"tensor": {"dtype": "DT_FLOAT", "tensorShape": {"dim": [{"size": "3"}, {"size": "3"}, {"size": "16"}, {"size": "16"}]}}}, "dtype": {"type": "DT_FLOAT"}}}, {"name": "unknown_208", "op": "Const", "attr": {"value": {"tensor": {"dtype": "DT_FLOAT", "tensorShape": {"dim": [{"size": "16"}]}}}, "dtype": {"type": "DT_FLOAT"}}}, {"name": "PartitionedCall/transpose_436/perm", "op": "Const", "attr": {"value": {"tensor": {"dtype": "DT_INT32", "tensorShape": {"dim": [{"size": "4"}]}}}, "dtype": {"type": "DT_INT32"}}}, {"name": "PartitionedCall/onnx_tf_prefix_Concat_859/axis", "op": "Const", "attr": {"value": {"tensor": {"dtype": "DT_INT32", "tensorShape": {}}}, "dtype": {"type": "DT_INT32"}}}, {"name": "PartitionedCall/Const_374", "op": "Const", "attr": {"value": {"tensor": {"dtype": "DT_INT32", "tensorShape": {"dim": [{"size": "4"}, {"size": "2"}]}}}, "dtype": {"type": "DT_INT32"}}}, {"name": "PartitionedCall/transpose_441/perm", "op": "Const", "attr": {"value": {"tensor": {"dtype": "DT_INT32", "tensorShape": {"dim": [{"size": "4"}]}}}, "dtype": {"type": "DT_INT32"}}}, {"name": "PartitionedCall/split_212", "op": "Const", "attr": {"value": {"tensor": {"dtype": "DT_FLOAT", "tensorShape": {"dim": [{"size": "3"}, {"size": "3"}, {"size": "32"}, {"size": "16"}]}}}, "dtype": {"type": "DT_FLOAT"}}}, {"name": "unknown_212", "op": "Const", "attr": {"value": {"tensor": {"dtype": "DT_FLOAT", "tensorShape": {"dim": [{"size": "16"}]}}}, "dtype": {"type": "DT_FLOAT"}}}, {"name": "PartitionedCall/transpose_442/perm", "op": "Const", "attr": {"value": {"tensor": {"dtype": "DT_INT32", "tensorShape": {"dim": [{"size": "4"}]}}}, "dtype": {"type": "DT_INT32"}}}, {"name": "PartitionedCall/transpose_443/perm", "op": "Const", "attr": {"value": {"tensor": {"dtype": "DT_INT32", "tensorShape": {"dim": [{"size": "4"}]}}}, "dtype": {"type": "DT_INT32"}}}, {"name": "PartitionedCall/onnx_tf_prefix_Constant_871", "op": "Const", "attr": {"value": {"tensor": {"dtype": "DT_FLOAT", "tensorShape": {"dim": [{"size": "2"}]}}}, "dtype": {"type": "DT_FLOAT"}}}, {"name": "PartitionedCall/onnx_tf_prefix_Cast_872", "op": "Const", "attr": {"value": {"tensor": {"dtype": "DT_FLOAT", "tensorShape": {"dim": [{"size": "2"}]}}}, "dtype": {"type": "DT_FLOAT"}}}, {"name": "PartitionedCall/onnx_tf_prefix_Shape_873", "op": "Const", "attr": {"value": {"tensor": {"dtype": "DT_INT64", "tensorShape": {"dim": [{"size": "4"}]}}}, "dtype": {"type": "DT_INT64"}}}, {"name": "PartitionedCall/SelectV2_113", "op": "Const", "attr": {"value": {"tensor": {"dtype": "DT_INT64", "tensorShape": {"dim": [{"size": "1"}]}}}, "dtype": {"type": "DT_INT64"}}}, {"name": "PartitionedCall/zeros_28", "op": "Const", "attr": {"value": {"tensor": {"dtype": "DT_INT64", "tensorShape": {}}}, "dtype": {"type": "DT_INT64"}}}, {"name": "PartitionedCall/Const_378", "op": "Const", "attr": {"value": {"tensor": {"dtype": "DT_INT64", "tensorShape": {}}}, "dtype": {"type": "DT_INT64"}}}, {"name": "PartitionedCall/Shape_28", "op": "Const", "attr": {"value": {"tensor": {"dtype": "DT_INT64", "tensorShape": {"dim": [{"size": "1"}]}}}, "dtype": {"type": "DT_INT64"}}}, {"name": "PartitionedCall/ExpandDims_28", "op": "Const", "attr": {"value": {"tensor": {"dtype": "DT_INT64", "tensorShape": {"dim": [{"size": "1"}, {"size": "1"}]}}}, "dtype": {"type": "DT_INT64"}}}, {"name": "PartitionedCall/Cast_113", "op": "Const", "attr": {"value": {"tensor": {"dtype": "DT_INT64", "tensorShape": {"dim": [{"size": "1"}]}}}, "dtype": {"type": "DT_INT64"}}}, {"name": "PartitionedCall/SelectV2_114", "op": "Const", "attr": {"value": {"tensor": {"dtype": "DT_INT64", "tensorShape": {"dim": [{"size": "1"}]}}}, "dtype": {"type": "DT_INT64"}}}, {"name": "PartitionedCall/Const_377", "op": "Const", "attr": {"value": {"tensor": {"dtype": "DT_INT64", "tensorShape": {}}}, "dtype": {"type": "DT_INT64"}}}, {"name": "PartitionedCall/ones_28", "op": "Const", "attr": {"value": {"tensor": {"dtype": "DT_INT64", "tensorShape": {"dim": [{"size": "1"}]}}}, "dtype": {"type": "DT_INT64"}}}, {"name": "PartitionedCall/onnx_tf_prefix_Concat_880/axis", "op": "Const", "attr": {"value": {"tensor": {"dtype": "DT_INT32", "tensorShape": {}}}, "dtype": {"type": "DT_INT32"}}}, {"name": "PartitionedCall/strided_slice_28/stack", "op": "Const", "attr": {"value": {"tensor": {"dtype": "DT_INT32", "tensorShape": {"dim": [{"size": "1"}]}}}, "dtype": {"type": "DT_INT32"}}}, {"name": "PartitionedCall/strided_slice_28/stack_1", "op": "Const", "attr": {"value": {"tensor": {"dtype": "DT_INT32", "tensorShape": {"dim": [{"size": "1"}]}}}, "dtype": {"type": "DT_INT32"}}}, {"name": "PartitionedCall/strided_slice_28/stack_2", "op": "Const", "attr": {"value": {"tensor": {"dtype": "DT_INT32", "tensorShape": {"dim": [{"size": "1"}]}}}, "dtype": {"type": "DT_INT32"}}}, {"name": "PartitionedCall/Cast_114", "op": "Const", "attr": {"value": {"tensor": {"dtype": "DT_FLOAT", "tensorShape": {"dim": [{"size": "2"}]}}}, "dtype": {"type": "DT_FLOAT"}}}, {"name": "PartitionedCall/transpose_444/perm", "op": "Const", "attr": {"value": {"tensor": {"dtype": "DT_INT32", "tensorShape": {"dim": [{"size": "4"}]}}}, "dtype": {"type": "DT_INT32"}}}, {"name": "PartitionedCall/transpose_427/perm", "op": "Const", "attr": {"value": {"tensor": {"dtype": "DT_INT32", "tensorShape": {"dim": [{"size": "4"}]}}}, "dtype": {"type": "DT_INT32"}}}, {"name": "PartitionedCall/transpose_428/perm", "op": "Const", "attr": {"value": {"tensor": {"dtype": "DT_INT32", "tensorShape": {"dim": [{"size": "4"}]}}}, "dtype": {"type": "DT_INT32"}}}, {"name": "PartitionedCall/Const_365", "op": "Const", "attr": {"value": {"tensor": {"dtype": "DT_INT32", "tensorShape": {"dim": [{"size": "4"}, {"size": "2"}]}}}, "dtype": {"type": "DT_INT32"}}}, {"name": "PartitionedCall/transpose_430/perm", "op": "Const", "attr": {"value": {"tensor": {"dtype": "DT_INT32", "tensorShape": {"dim": [{"size": "4"}]}}}, "dtype": {"type": "DT_INT32"}}}, {"name": "PartitionedCall/split_206", "op": "Const", "attr": {"value": {"tensor": {"dtype": "DT_FLOAT", "tensorShape": {"dim": [{"size": "3"}, {"size": "3"}, {"size": "16"}, {"size": "16"}]}}}, "dtype": {"type": "DT_FLOAT"}}}, {"name": "unknown_206", "op": "Const", "attr": {"value": {"tensor": {"dtype": "DT_FLOAT", "tensorShape": {"dim": [{"size": "16"}]}}}, "dtype": {"type": "DT_FLOAT"}}}, {"name": "PartitionedCall/transpose_431/perm", "op": "Const", "attr": {"value": {"tensor": {"dtype": "DT_INT32", "tensorShape": {"dim": [{"size": "4"}]}}}, "dtype": {"type": "DT_INT32"}}}, {"name": "PartitionedCall/onnx_tf_prefix_Concat_882/axis", "op": "Const", "attr": {"value": {"tensor": {"dtype": "DT_INT32", "tensorShape": {}}}, "dtype": {"type": "DT_INT32"}}}, {"name": "PartitionedCall/Const_379", "op": "Const", "attr": {"value": {"tensor": {"dtype": "DT_INT32", "tensorShape": {"dim": [{"size": "4"}, {"size": "2"}]}}}, "dtype": {"type": "DT_INT32"}}}, {"name": "PartitionedCall/transpose_446/perm", "op": "Const", "attr": {"value": {"tensor": {"dtype": "DT_INT32", "tensorShape": {"dim": [{"size": "4"}]}}}, "dtype": {"type": "DT_INT32"}}}, {"name": "PartitionedCall/split_214", "op": "Const", "attr": {"value": {"tensor": {"dtype": "DT_FLOAT", "tensorShape": {"dim": [{"size": "3"}, {"size": "3"}, {"size": "32"}, {"size": "16"}]}}}, "dtype": {"type": "DT_FLOAT"}}}, {"name": "unknown_214", "op": "Const", "attr": {"value": {"tensor": {"dtype": "DT_FLOAT", "tensorShape": {"dim": [{"size": "16"}]}}}, "dtype": {"type": "DT_FLOAT"}}}, {"name": "PartitionedCall/transpose_447/perm", "op": "Const", "attr": {"value": {"tensor": {"dtype": "DT_INT32", "tensorShape": {"dim": [{"size": "4"}]}}}, "dtype": {"type": "DT_INT32"}}}, {"name": "PartitionedCall/transpose_448/perm", "op": "Const", "attr": {"value": {"tensor": {"dtype": "DT_INT32", "tensorShape": {"dim": [{"size": "4"}]}}}, "dtype": {"type": "DT_INT32"}}}, {"name": "PartitionedCall/onnx_tf_prefix_Constant_894", "op": "Const", "attr": {"value": {"tensor": {"dtype": "DT_FLOAT", "tensorShape": {"dim": [{"size": "2"}]}}}, "dtype": {"type": "DT_FLOAT"}}}, {"name": "PartitionedCall/onnx_tf_prefix_Cast_895", "op": "Const", "attr": {"value": {"tensor": {"dtype": "DT_FLOAT", "tensorShape": {"dim": [{"size": "2"}]}}}, "dtype": {"type": "DT_FLOAT"}}}, {"name": "PartitionedCall/onnx_tf_prefix_Shape_896", "op": "Const", "attr": {"value": {"tensor": {"dtype": "DT_INT64", "tensorShape": {"dim": [{"size": "4"}]}}}, "dtype": {"type": "DT_INT64"}}}, {"name": "PartitionedCall/SelectV2_117", "op": "Const", "attr": {"value": {"tensor": {"dtype": "DT_INT64", "tensorShape": {"dim": [{"size": "1"}]}}}, "dtype": {"type": "DT_INT64"}}}, {"name": "PartitionedCall/zeros_29", "op": "Const", "attr": {"value": {"tensor": {"dtype": "DT_INT64", "tensorShape": {}}}, "dtype": {"type": "DT_INT64"}}}, {"name": "PartitionedCall/Const_383", "op": "Const", "attr": {"value": {"tensor": {"dtype": "DT_INT64", "tensorShape": {}}}, "dtype": {"type": "DT_INT64"}}}, {"name": "PartitionedCall/Shape_29", "op": "Const", "attr": {"value": {"tensor": {"dtype": "DT_INT64", "tensorShape": {"dim": [{"size": "1"}]}}}, "dtype": {"type": "DT_INT64"}}}, {"name": "PartitionedCall/ExpandDims_29", "op": "Const", "attr": {"value": {"tensor": {"dtype": "DT_INT64", "tensorShape": {"dim": [{"size": "1"}, {"size": "1"}]}}}, "dtype": {"type": "DT_INT64"}}}, {"name": "PartitionedCall/Cast_117", "op": "Const", "attr": {"value": {"tensor": {"dtype": "DT_INT64", "tensorShape": {"dim": [{"size": "1"}]}}}, "dtype": {"type": "DT_INT64"}}}, {"name": "PartitionedCall/SelectV2_118", "op": "Const", "attr": {"value": {"tensor": {"dtype": "DT_INT64", "tensorShape": {"dim": [{"size": "1"}]}}}, "dtype": {"type": "DT_INT64"}}}, {"name": "PartitionedCall/Const_382", "op": "Const", "attr": {"value": {"tensor": {"dtype": "DT_INT64", "tensorShape": {}}}, "dtype": {"type": "DT_INT64"}}}, {"name": "PartitionedCall/ones_29", "op": "Const", "attr": {"value": {"tensor": {"dtype": "DT_INT64", "tensorShape": {"dim": [{"size": "1"}]}}}, "dtype": {"type": "DT_INT64"}}}, {"name": "PartitionedCall/onnx_tf_prefix_Concat_903/axis", "op": "Const", "attr": {"value": {"tensor": {"dtype": "DT_INT32", "tensorShape": {}}}, "dtype": {"type": "DT_INT32"}}}, {"name": "PartitionedCall/strided_slice_29/stack", "op": "Const", "attr": {"value": {"tensor": {"dtype": "DT_INT32", "tensorShape": {"dim": [{"size": "1"}]}}}, "dtype": {"type": "DT_INT32"}}}, {"name": "PartitionedCall/strided_slice_29/stack_1", "op": "Const", "attr": {"value": {"tensor": {"dtype": "DT_INT32", "tensorShape": {"dim": [{"size": "1"}]}}}, "dtype": {"type": "DT_INT32"}}}, {"name": "PartitionedCall/strided_slice_29/stack_2", "op": "Const", "attr": {"value": {"tensor": {"dtype": "DT_INT32", "tensorShape": {"dim": [{"size": "1"}]}}}, "dtype": {"type": "DT_INT32"}}}, {"name": "PartitionedCall/Cast_118", "op": "Const", "attr": {"value": {"tensor": {"dtype": "DT_FLOAT", "tensorShape": {"dim": [{"size": "2"}]}}}, "dtype": {"type": "DT_FLOAT"}}}, {"name": "PartitionedCall/transpose_449/perm", "op": "Const", "attr": {"value": {"tensor": {"dtype": "DT_INT32", "tensorShape": {"dim": [{"size": "4"}]}}}, "dtype": {"type": "DT_INT32"}}}, {"name": "PartitionedCall/transpose_422/perm", "op": "Const", "attr": {"value": {"tensor": {"dtype": "DT_INT32", "tensorShape": {"dim": [{"size": "4"}]}}}, "dtype": {"type": "DT_INT32"}}}, {"name": "PartitionedCall/transpose_423/perm", "op": "Const", "attr": {"value": {"tensor": {"dtype": "DT_INT32", "tensorShape": {"dim": [{"size": "4"}]}}}, "dtype": {"type": "DT_INT32"}}}, {"name": "PartitionedCall/Const_362", "op": "Const", "attr": {"value": {"tensor": {"dtype": "DT_INT32", "tensorShape": {"dim": [{"size": "4"}, {"size": "2"}]}}}, "dtype": {"type": "DT_INT32"}}}, {"name": "PartitionedCall/transpose_425/perm", "op": "Const", "attr": {"value": {"tensor": {"dtype": "DT_INT32", "tensorShape": {"dim": [{"size": "4"}]}}}, "dtype": {"type": "DT_INT32"}}}, {"name": "PartitionedCall/split_204", "op": "Const", "attr": {"value": {"tensor": {"dtype": "DT_FLOAT", "tensorShape": {"dim": [{"size": "3"}, {"size": "3"}, {"size": "16"}, {"size": "16"}]}}}, "dtype": {"type": "DT_FLOAT"}}}, {"name": "unknown_204", "op": "Const", "attr": {"value": {"tensor": {"dtype": "DT_FLOAT", "tensorShape": {"dim": [{"size": "16"}]}}}, "dtype": {"type": "DT_FLOAT"}}}, {"name": "PartitionedCall/transpose_426/perm", "op": "Const", "attr": {"value": {"tensor": {"dtype": "DT_INT32", "tensorShape": {"dim": [{"size": "4"}]}}}, "dtype": {"type": "DT_INT32"}}}, {"name": "PartitionedCall/onnx_tf_prefix_Concat_905/axis", "op": "Const", "attr": {"value": {"tensor": {"dtype": "DT_INT32", "tensorShape": {}}}, "dtype": {"type": "DT_INT32"}}}, {"name": "PartitionedCall/Const_384", "op": "Const", "attr": {"value": {"tensor": {"dtype": "DT_INT32", "tensorShape": {"dim": [{"size": "4"}, {"size": "2"}]}}}, "dtype": {"type": "DT_INT32"}}}, {"name": "PartitionedCall/transpose_451/perm", "op": "Const", "attr": {"value": {"tensor": {"dtype": "DT_INT32", "tensorShape": {"dim": [{"size": "4"}]}}}, "dtype": {"type": "DT_INT32"}}}, {"name": "PartitionedCall/split_216", "op": "Const", "attr": {"value": {"tensor": {"dtype": "DT_FLOAT", "tensorShape": {"dim": [{"size": "3"}, {"size": "3"}, {"size": "32"}, {"size": "16"}]}}}, "dtype": {"type": "DT_FLOAT"}}}, {"name": "unknown_216", "op": "Const", "attr": {"value": {"tensor": {"dtype": "DT_FLOAT", "tensorShape": {"dim": [{"size": "16"}]}}}, "dtype": {"type": "DT_FLOAT"}}}, {"name": "PartitionedCall/transpose_452/perm", "op": "Const", "attr": {"value": {"tensor": {"dtype": "DT_INT32", "tensorShape": {"dim": [{"size": "4"}]}}}, "dtype": {"type": "DT_INT32"}}}, {"name": "PartitionedCall/transpose_453/perm", "op": "Const", "attr": {"value": {"tensor": {"dtype": "DT_INT32", "tensorShape": {"dim": [{"size": "4"}]}}}, "dtype": {"type": "DT_INT32"}}}, {"name": "PartitionedCall/onnx_tf_prefix_Constant_917", "op": "Const", "attr": {"value": {"tensor": {"dtype": "DT_FLOAT", "tensorShape": {"dim": [{"size": "2"}]}}}, "dtype": {"type": "DT_FLOAT"}}}, {"name": "PartitionedCall/onnx_tf_prefix_Cast_918", "op": "Const", "attr": {"value": {"tensor": {"dtype": "DT_FLOAT", "tensorShape": {"dim": [{"size": "2"}]}}}, "dtype": {"type": "DT_FLOAT"}}}, {"name": "PartitionedCall/onnx_tf_prefix_Shape_919", "op": "Const", "attr": {"value": {"tensor": {"dtype": "DT_INT64", "tensorShape": {"dim": [{"size": "4"}]}}}, "dtype": {"type": "DT_INT64"}}}, {"name": "PartitionedCall/SelectV2_121", "op": "Const", "attr": {"value": {"tensor": {"dtype": "DT_INT64", "tensorShape": {"dim": [{"size": "1"}]}}}, "dtype": {"type": "DT_INT64"}}}, {"name": "PartitionedCall/zeros_30", "op": "Const", "attr": {"value": {"tensor": {"dtype": "DT_INT64", "tensorShape": {}}}, "dtype": {"type": "DT_INT64"}}}, {"name": "PartitionedCall/Const_388", "op": "Const", "attr": {"value": {"tensor": {"dtype": "DT_INT64", "tensorShape": {}}}, "dtype": {"type": "DT_INT64"}}}, {"name": "PartitionedCall/Shape_30", "op": "Const", "attr": {"value": {"tensor": {"dtype": "DT_INT64", "tensorShape": {"dim": [{"size": "1"}]}}}, "dtype": {"type": "DT_INT64"}}}, {"name": "PartitionedCall/ExpandDims_30", "op": "Const", "attr": {"value": {"tensor": {"dtype": "DT_INT64", "tensorShape": {"dim": [{"size": "1"}, {"size": "1"}]}}}, "dtype": {"type": "DT_INT64"}}}, {"name": "PartitionedCall/Cast_121", "op": "Const", "attr": {"value": {"tensor": {"dtype": "DT_INT64", "tensorShape": {"dim": [{"size": "1"}]}}}, "dtype": {"type": "DT_INT64"}}}, {"name": "PartitionedCall/SelectV2_122", "op": "Const", "attr": {"value": {"tensor": {"dtype": "DT_INT64", "tensorShape": {"dim": [{"size": "1"}]}}}, "dtype": {"type": "DT_INT64"}}}, {"name": "PartitionedCall/Const_387", "op": "Const", "attr": {"value": {"tensor": {"dtype": "DT_INT64", "tensorShape": {}}}, "dtype": {"type": "DT_INT64"}}}, {"name": "PartitionedCall/ones_30", "op": "Const", "attr": {"value": {"tensor": {"dtype": "DT_INT64", "tensorShape": {"dim": [{"size": "1"}]}}}, "dtype": {"type": "DT_INT64"}}}, {"name": "PartitionedCall/onnx_tf_prefix_Concat_926/axis", "op": "Const", "attr": {"value": {"tensor": {"dtype": "DT_INT32", "tensorShape": {}}}, "dtype": {"type": "DT_INT32"}}}, {"name": "PartitionedCall/strided_slice_30/stack", "op": "Const", "attr": {"value": {"tensor": {"dtype": "DT_INT32", "tensorShape": {"dim": [{"size": "1"}]}}}, "dtype": {"type": "DT_INT32"}}}, {"name": "PartitionedCall/strided_slice_30/stack_1", "op": "Const", "attr": {"value": {"tensor": {"dtype": "DT_INT32", "tensorShape": {"dim": [{"size": "1"}]}}}, "dtype": {"type": "DT_INT32"}}}, {"name": "PartitionedCall/strided_slice_30/stack_2", "op": "Const", "attr": {"value": {"tensor": {"dtype": "DT_INT32", "tensorShape": {"dim": [{"size": "1"}]}}}, "dtype": {"type": "DT_INT32"}}}, {"name": "PartitionedCall/Cast_122", "op": "Const", "attr": {"value": {"tensor": {"dtype": "DT_FLOAT", "tensorShape": {"dim": [{"size": "2"}]}}}, "dtype": {"type": "DT_FLOAT"}}}, {"name": "PartitionedCall/transpose_454/perm", "op": "Const", "attr": {"value": {"tensor": {"dtype": "DT_INT32", "tensorShape": {"dim": [{"size": "4"}]}}}, "dtype": {"type": "DT_INT32"}}}, {"name": "PartitionedCall/transpose_417/perm", "op": "Const", "attr": {"value": {"tensor": {"dtype": "DT_INT32", "tensorShape": {"dim": [{"size": "4"}]}}}, "dtype": {"type": "DT_INT32"}}}, {"name": "PartitionedCall/transpose_418/perm", "op": "Const", "attr": {"value": {"tensor": {"dtype": "DT_INT32", "tensorShape": {"dim": [{"size": "4"}]}}}, "dtype": {"type": "DT_INT32"}}}, {"name": "PartitionedCall/Const_359", "op": "Const", "attr": {"value": {"tensor": {"dtype": "DT_INT32", "tensorShape": {"dim": [{"size": "4"}, {"size": "2"}]}}}, "dtype": {"type": "DT_INT32"}}}, {"name": "PartitionedCall/transpose_420/perm", "op": "Const", "attr": {"value": {"tensor": {"dtype": "DT_INT32", "tensorShape": {"dim": [{"size": "4"}]}}}, "dtype": {"type": "DT_INT32"}}}, {"name": "PartitionedCall/split_202", "op": "Const", "attr": {"value": {"tensor": {"dtype": "DT_FLOAT", "tensorShape": {"dim": [{"size": "3"}, {"size": "3"}, {"size": "16"}, {"size": "16"}]}}}, "dtype": {"type": "DT_FLOAT"}}}, {"name": "unknown_202", "op": "Const", "attr": {"value": {"tensor": {"dtype": "DT_FLOAT", "tensorShape": {"dim": [{"size": "16"}]}}}, "dtype": {"type": "DT_FLOAT"}}}, {"name": "PartitionedCall/transpose_421/perm", "op": "Const", "attr": {"value": {"tensor": {"dtype": "DT_INT32", "tensorShape": {"dim": [{"size": "4"}]}}}, "dtype": {"type": "DT_INT32"}}}, {"name": "PartitionedCall/onnx_tf_prefix_Concat_928/axis", "op": "Const", "attr": {"value": {"tensor": {"dtype": "DT_INT32", "tensorShape": {}}}, "dtype": {"type": "DT_INT32"}}}, {"name": "PartitionedCall/Const_389", "op": "Const", "attr": {"value": {"tensor": {"dtype": "DT_INT32", "tensorShape": {"dim": [{"size": "4"}, {"size": "2"}]}}}, "dtype": {"type": "DT_INT32"}}}, {"name": "PartitionedCall/transpose_456/perm", "op": "Const", "attr": {"value": {"tensor": {"dtype": "DT_INT32", "tensorShape": {"dim": [{"size": "4"}]}}}, "dtype": {"type": "DT_INT32"}}}, {"name": "PartitionedCall/split_218", "op": "Const", "attr": {"value": {"tensor": {"dtype": "DT_FLOAT", "tensorShape": {"dim": [{"size": "3"}, {"size": "3"}, {"size": "32"}, {"size": "16"}]}}}, "dtype": {"type": "DT_FLOAT"}}}, {"name": "unknown_218", "op": "Const", "attr": {"value": {"tensor": {"dtype": "DT_FLOAT", "tensorShape": {"dim": [{"size": "16"}]}}}, "dtype": {"type": "DT_FLOAT"}}}, {"name": "PartitionedCall/transpose_457/perm", "op": "Const", "attr": {"value": {"tensor": {"dtype": "DT_INT32", "tensorShape": {"dim": [{"size": "4"}]}}}, "dtype": {"type": "DT_INT32"}}}, {"name": "PartitionedCall/transpose_458/perm", "op": "Const", "attr": {"value": {"tensor": {"dtype": "DT_INT32", "tensorShape": {"dim": [{"size": "4"}]}}}, "dtype": {"type": "DT_INT32"}}}, {"name": "PartitionedCall/onnx_tf_prefix_Constant_940", "op": "Const", "attr": {"value": {"tensor": {"dtype": "DT_FLOAT", "tensorShape": {"dim": [{"size": "2"}]}}}, "dtype": {"type": "DT_FLOAT"}}}, {"name": "PartitionedCall/onnx_tf_prefix_Cast_941", "op": "Const", "attr": {"value": {"tensor": {"dtype": "DT_FLOAT", "tensorShape": {"dim": [{"size": "2"}]}}}, "dtype": {"type": "DT_FLOAT"}}}, {"name": "PartitionedCall/onnx_tf_prefix_Shape_942", "op": "Const", "attr": {"value": {"tensor": {"dtype": "DT_INT64", "tensorShape": {"dim": [{"size": "4"}]}}}, "dtype": {"type": "DT_INT64"}}}, {"name": "PartitionedCall/SelectV2_125", "op": "Const", "attr": {"value": {"tensor": {"dtype": "DT_INT64", "tensorShape": {"dim": [{"size": "1"}]}}}, "dtype": {"type": "DT_INT64"}}}, {"name": "PartitionedCall/zeros_31", "op": "Const", "attr": {"value": {"tensor": {"dtype": "DT_INT64", "tensorShape": {}}}, "dtype": {"type": "DT_INT64"}}}, {"name": "PartitionedCall/Const_393", "op": "Const", "attr": {"value": {"tensor": {"dtype": "DT_INT64", "tensorShape": {}}}, "dtype": {"type": "DT_INT64"}}}, {"name": "PartitionedCall/Shape_31", "op": "Const", "attr": {"value": {"tensor": {"dtype": "DT_INT64", "tensorShape": {"dim": [{"size": "1"}]}}}, "dtype": {"type": "DT_INT64"}}}, {"name": "PartitionedCall/ExpandDims_31", "op": "Const", "attr": {"value": {"tensor": {"dtype": "DT_INT64", "tensorShape": {"dim": [{"size": "1"}, {"size": "1"}]}}}, "dtype": {"type": "DT_INT64"}}}, {"name": "PartitionedCall/Cast_125", "op": "Const", "attr": {"value": {"tensor": {"dtype": "DT_INT64", "tensorShape": {"dim": [{"size": "1"}]}}}, "dtype": {"type": "DT_INT64"}}}, {"name": "PartitionedCall/SelectV2_126", "op": "Const", "attr": {"value": {"tensor": {"dtype": "DT_INT64", "tensorShape": {"dim": [{"size": "1"}]}}}, "dtype": {"type": "DT_INT64"}}}, {"name": "PartitionedCall/Const_392", "op": "Const", "attr": {"value": {"tensor": {"dtype": "DT_INT64", "tensorShape": {}}}, "dtype": {"type": "DT_INT64"}}}, {"name": "PartitionedCall/ones_31", "op": "Const", "attr": {"value": {"tensor": {"dtype": "DT_INT64", "tensorShape": {"dim": [{"size": "1"}]}}}, "dtype": {"type": "DT_INT64"}}}, {"name": "PartitionedCall/onnx_tf_prefix_Concat_949/axis", "op": "Const", "attr": {"value": {"tensor": {"dtype": "DT_INT32", "tensorShape": {}}}, "dtype": {"type": "DT_INT32"}}}, {"name": "PartitionedCall/strided_slice_31/stack", "op": "Const", "attr": {"value": {"tensor": {"dtype": "DT_INT32", "tensorShape": {"dim": [{"size": "1"}]}}}, "dtype": {"type": "DT_INT32"}}}, {"name": "PartitionedCall/strided_slice_31/stack_1", "op": "Const", "attr": {"value": {"tensor": {"dtype": "DT_INT32", "tensorShape": {"dim": [{"size": "1"}]}}}, "dtype": {"type": "DT_INT32"}}}, {"name": "PartitionedCall/strided_slice_31/stack_2", "op": "Const", "attr": {"value": {"tensor": {"dtype": "DT_INT32", "tensorShape": {"dim": [{"size": "1"}]}}}, "dtype": {"type": "DT_INT32"}}}, {"name": "PartitionedCall/Cast_126", "op": "Const", "attr": {"value": {"tensor": {"dtype": "DT_FLOAT", "tensorShape": {"dim": [{"size": "2"}]}}}, "dtype": {"type": "DT_FLOAT"}}}, {"name": "PartitionedCall/transpose_459/perm", "op": "Const", "attr": {"value": {"tensor": {"dtype": "DT_INT32", "tensorShape": {"dim": [{"size": "4"}]}}}, "dtype": {"type": "DT_INT32"}}}, {"name": "PartitionedCall/transpose_412/perm", "op": "Const", "attr": {"value": {"tensor": {"dtype": "DT_INT32", "tensorShape": {"dim": [{"size": "4"}]}}}, "dtype": {"type": "DT_INT32"}}}, {"name": "PartitionedCall/transpose_413/perm", "op": "Const", "attr": {"value": {"tensor": {"dtype": "DT_INT32", "tensorShape": {"dim": [{"size": "4"}]}}}, "dtype": {"type": "DT_INT32"}}}, {"name": "PartitionedCall/Const_356", "op": "Const", "attr": {"value": {"tensor": {"dtype": "DT_INT32", "tensorShape": {"dim": [{"size": "4"}, {"size": "2"}]}}}, "dtype": {"type": "DT_INT32"}}}, {"name": "PartitionedCall/transpose_415/perm", "op": "Const", "attr": {"value": {"tensor": {"dtype": "DT_INT32", "tensorShape": {"dim": [{"size": "4"}]}}}, "dtype": {"type": "DT_INT32"}}}, {"name": "PartitionedCall/split_200", "op": "Const", "attr": {"value": {"tensor": {"dtype": "DT_FLOAT", "tensorShape": {"dim": [{"size": "3"}, {"size": "3"}, {"size": "16"}, {"size": "16"}]}}}, "dtype": {"type": "DT_FLOAT"}}}, {"name": "unknown_200", "op": "Const", "attr": {"value": {"tensor": {"dtype": "DT_FLOAT", "tensorShape": {"dim": [{"size": "16"}]}}}, "dtype": {"type": "DT_FLOAT"}}}, {"name": "PartitionedCall/transpose_416/perm", "op": "Const", "attr": {"value": {"tensor": {"dtype": "DT_INT32", "tensorShape": {"dim": [{"size": "4"}]}}}, "dtype": {"type": "DT_INT32"}}}, {"name": "PartitionedCall/onnx_tf_prefix_Concat_951/axis", "op": "Const", "attr": {"value": {"tensor": {"dtype": "DT_INT32", "tensorShape": {}}}, "dtype": {"type": "DT_INT32"}}}, {"name": "PartitionedCall/Const_394", "op": "Const", "attr": {"value": {"tensor": {"dtype": "DT_INT32", "tensorShape": {"dim": [{"size": "4"}, {"size": "2"}]}}}, "dtype": {"type": "DT_INT32"}}}, {"name": "PartitionedCall/transpose_461/perm", "op": "Const", "attr": {"value": {"tensor": {"dtype": "DT_INT32", "tensorShape": {"dim": [{"size": "4"}]}}}, "dtype": {"type": "DT_INT32"}}}, {"name": "PartitionedCall/split_220", "op": "Const", "attr": {"value": {"tensor": {"dtype": "DT_FLOAT", "tensorShape": {"dim": [{"size": "3"}, {"size": "3"}, {"size": "32"}, {"size": "16"}]}}}, "dtype": {"type": "DT_FLOAT"}}}, {"name": "unknown_220", "op": "Const", "attr": {"value": {"tensor": {"dtype": "DT_FLOAT", "tensorShape": {"dim": [{"size": "16"}]}}}, "dtype": {"type": "DT_FLOAT"}}}, {"name": "PartitionedCall/transpose_462/perm", "op": "Const", "attr": {"value": {"tensor": {"dtype": "DT_INT32", "tensorShape": {"dim": [{"size": "4"}]}}}, "dtype": {"type": "DT_INT32"}}}, {"name": "PartitionedCall/transpose_463/perm", "op": "Const", "attr": {"value": {"tensor": {"dtype": "DT_INT32", "tensorShape": {"dim": [{"size": "4"}]}}}, "dtype": {"type": "DT_INT32"}}}, {"name": "PartitionedCall/onnx_tf_prefix_Constant_963", "op": "Const", "attr": {"value": {"tensor": {"dtype": "DT_FLOAT", "tensorShape": {"dim": [{"size": "2"}]}}}, "dtype": {"type": "DT_FLOAT"}}}, {"name": "PartitionedCall/onnx_tf_prefix_Cast_964", "op": "Const", "attr": {"value": {"tensor": {"dtype": "DT_FLOAT", "tensorShape": {"dim": [{"size": "2"}]}}}, "dtype": {"type": "DT_FLOAT"}}}, {"name": "PartitionedCall/onnx_tf_prefix_Shape_965", "op": "Const", "attr": {"value": {"tensor": {"dtype": "DT_INT64", "tensorShape": {"dim": [{"size": "4"}]}}}, "dtype": {"type": "DT_INT64"}}}, {"name": "PartitionedCall/SelectV2_129", "op": "Const", "attr": {"value": {"tensor": {"dtype": "DT_INT64", "tensorShape": {"dim": [{"size": "1"}]}}}, "dtype": {"type": "DT_INT64"}}}, {"name": "PartitionedCall/zeros_32", "op": "Const", "attr": {"value": {"tensor": {"dtype": "DT_INT64", "tensorShape": {}}}, "dtype": {"type": "DT_INT64"}}}, {"name": "PartitionedCall/Const_398", "op": "Const", "attr": {"value": {"tensor": {"dtype": "DT_INT64", "tensorShape": {}}}, "dtype": {"type": "DT_INT64"}}}, {"name": "PartitionedCall/Shape_32", "op": "Const", "attr": {"value": {"tensor": {"dtype": "DT_INT64", "tensorShape": {"dim": [{"size": "1"}]}}}, "dtype": {"type": "DT_INT64"}}}, {"name": "PartitionedCall/ExpandDims_32", "op": "Const", "attr": {"value": {"tensor": {"dtype": "DT_INT64", "tensorShape": {"dim": [{"size": "1"}, {"size": "1"}]}}}, "dtype": {"type": "DT_INT64"}}}, {"name": "PartitionedCall/Cast_129", "op": "Const", "attr": {"value": {"tensor": {"dtype": "DT_INT64", "tensorShape": {"dim": [{"size": "1"}]}}}, "dtype": {"type": "DT_INT64"}}}, {"name": "PartitionedCall/SelectV2_130", "op": "Const", "attr": {"value": {"tensor": {"dtype": "DT_INT64", "tensorShape": {"dim": [{"size": "1"}]}}}, "dtype": {"type": "DT_INT64"}}}, {"name": "PartitionedCall/Const_397", "op": "Const", "attr": {"value": {"tensor": {"dtype": "DT_INT64", "tensorShape": {}}}, "dtype": {"type": "DT_INT64"}}}, {"name": "PartitionedCall/ones_32", "op": "Const", "attr": {"value": {"tensor": {"dtype": "DT_INT64", "tensorShape": {"dim": [{"size": "1"}]}}}, "dtype": {"type": "DT_INT64"}}}, {"name": "PartitionedCall/onnx_tf_prefix_Concat_972/axis", "op": "Const", "attr": {"value": {"tensor": {"dtype": "DT_INT32", "tensorShape": {}}}, "dtype": {"type": "DT_INT32"}}}, {"name": "PartitionedCall/strided_slice_32/stack", "op": "Const", "attr": {"value": {"tensor": {"dtype": "DT_INT32", "tensorShape": {"dim": [{"size": "1"}]}}}, "dtype": {"type": "DT_INT32"}}}, {"name": "PartitionedCall/strided_slice_32/stack_1", "op": "Const", "attr": {"value": {"tensor": {"dtype": "DT_INT32", "tensorShape": {"dim": [{"size": "1"}]}}}, "dtype": {"type": "DT_INT32"}}}, {"name": "PartitionedCall/strided_slice_32/stack_2", "op": "Const", "attr": {"value": {"tensor": {"dtype": "DT_INT32", "tensorShape": {"dim": [{"size": "1"}]}}}, "dtype": {"type": "DT_INT32"}}}, {"name": "PartitionedCall/Cast_130", "op": "Const", "attr": {"value": {"tensor": {"dtype": "DT_FLOAT", "tensorShape": {"dim": [{"size": "2"}]}}}, "dtype": {"type": "DT_FLOAT"}}}, {"name": "PartitionedCall/transpose_464/perm", "op": "Const", "attr": {"value": {"tensor": {"dtype": "DT_INT32", "tensorShape": {"dim": [{"size": "4"}]}}}, "dtype": {"type": "DT_INT32"}}}, {"name": "PartitionedCall/Const_353", "op": "Const", "attr": {"value": {"tensor": {"dtype": "DT_INT32", "tensorShape": {"dim": [{"size": "4"}, {"size": "2"}]}}}, "dtype": {"type": "DT_INT32"}}}, {"name": "PartitionedCall/transpose_410/perm", "op": "Const", "attr": {"value": {"tensor": {"dtype": "DT_INT32", "tensorShape": {"dim": [{"size": "4"}]}}}, "dtype": {"type": "DT_INT32"}}}, {"name": "PartitionedCall/split_198", "op": "Const", "attr": {"value": {"tensor": {"dtype": "DT_FLOAT", "tensorShape": {"dim": [{"size": "3"}, {"size": "3"}, {"size": "64"}, {"size": "16"}]}}}, "dtype": {"type": "DT_FLOAT"}}}, {"name": "unknown_198", "op": "Const", "attr": {"value": {"tensor": {"dtype": "DT_FLOAT", "tensorShape": {"dim": [{"size": "16"}]}}}, "dtype": {"type": "DT_FLOAT"}}}, {"name": "PartitionedCall/transpose_411/perm", "op": "Const", "attr": {"value": {"tensor": {"dtype": "DT_INT32", "tensorShape": {"dim": [{"size": "4"}]}}}, "dtype": {"type": "DT_INT32"}}}, {"name": "PartitionedCall/onnx_tf_prefix_Concat_974/axis", "op": "Const", "attr": {"value": {"tensor": {"dtype": "DT_INT32", "tensorShape": {}}}, "dtype": {"type": "DT_INT32"}}}, {"name": "PartitionedCall/Const_399", "op": "Const", "attr": {"value": {"tensor": {"dtype": "DT_INT32", "tensorShape": {"dim": [{"size": "4"}, {"size": "2"}]}}}, "dtype": {"type": "DT_INT32"}}}, {"name": "PartitionedCall/transpose_466/perm", "op": "Const", "attr": {"value": {"tensor": {"dtype": "DT_INT32", "tensorShape": {"dim": [{"size": "4"}]}}}, "dtype": {"type": "DT_INT32"}}}, {"name": "PartitionedCall/split_222", "op": "Const", "attr": {"value": {"tensor": {"dtype": "DT_FLOAT", "tensorShape": {"dim": [{"size": "3"}, {"size": "3"}, {"size": "32"}, {"size": "64"}]}}}, "dtype": {"type": "DT_FLOAT"}}}, {"name": "unknown_222", "op": "Const", "attr": {"value": {"tensor": {"dtype": "DT_FLOAT", "tensorShape": {"dim": [{"size": "64"}]}}}, "dtype": {"type": "DT_FLOAT"}}}, {"name": "PartitionedCall/transpose_467/perm", "op": "Const", "attr": {"value": {"tensor": {"dtype": "DT_INT32", "tensorShape": {"dim": [{"size": "4"}]}}}, "dtype": {"type": "DT_INT32"}}}, {"name": "PartitionedCall/transpose_404/perm", "op": "Const", "attr": {"value": {"tensor": {"dtype": "DT_INT32", "tensorShape": {"dim": [{"size": "4"}]}}}, "dtype": {"type": "DT_INT32"}}}, {"name": "PartitionedCall/onnx_tf_prefix_Constant_826", "op": "Const", "attr": {"value": {"tensor": {"dtype": "DT_FLOAT", "tensorShape": {"dim": [{"size": "2"}]}}}, "dtype": {"type": "DT_FLOAT"}}}, {"name": "PartitionedCall/onnx_tf_prefix_Cast_827", "op": "Const", "attr": {"value": {"tensor": {"dtype": "DT_FLOAT", "tensorShape": {"dim": [{"size": "2"}]}}}, "dtype": {"type": "DT_FLOAT"}}}, {"name": "PartitionedCall/onnx_tf_prefix_Shape_828", "op": "Const", "attr": {"value": {"tensor": {"dtype": "DT_INT64", "tensorShape": {"dim": [{"size": "4"}]}}}, "dtype": {"type": "DT_INT64"}}}, {"name": "PartitionedCall/SelectV2_109", "op": "Const", "attr": {"value": {"tensor": {"dtype": "DT_INT64", "tensorShape": {"dim": [{"size": "1"}]}}}, "dtype": {"type": "DT_INT64"}}}, {"name": "PartitionedCall/zeros_27", "op": "Const", "attr": {"value": {"tensor": {"dtype": "DT_INT64", "tensorShape": {}}}, "dtype": {"type": "DT_INT64"}}}, {"name": "PartitionedCall/Const_349", "op": "Const", "attr": {"value": {"tensor": {"dtype": "DT_INT64", "tensorShape": {}}}, "dtype": {"type": "DT_INT64"}}}, {"name": "PartitionedCall/Shape_27", "op": "Const", "attr": {"value": {"tensor": {"dtype": "DT_INT64", "tensorShape": {"dim": [{"size": "1"}]}}}, "dtype": {"type": "DT_INT64"}}}, {"name": "PartitionedCall/ExpandDims_27", "op": "Const", "attr": {"value": {"tensor": {"dtype": "DT_INT64", "tensorShape": {"dim": [{"size": "1"}, {"size": "1"}]}}}, "dtype": {"type": "DT_INT64"}}}, {"name": "PartitionedCall/Cast_109", "op": "Const", "attr": {"value": {"tensor": {"dtype": "DT_INT64", "tensorShape": {"dim": [{"size": "1"}]}}}, "dtype": {"type": "DT_INT64"}}}, {"name": "PartitionedCall/SelectV2_110", "op": "Const", "attr": {"value": {"tensor": {"dtype": "DT_INT64", "tensorShape": {"dim": [{"size": "1"}]}}}, "dtype": {"type": "DT_INT64"}}}, {"name": "PartitionedCall/Const_348", "op": "Const", "attr": {"value": {"tensor": {"dtype": "DT_INT64", "tensorShape": {}}}, "dtype": {"type": "DT_INT64"}}}, {"name": "PartitionedCall/ones_27", "op": "Const", "attr": {"value": {"tensor": {"dtype": "DT_INT64", "tensorShape": {"dim": [{"size": "1"}]}}}, "dtype": {"type": "DT_INT64"}}}, {"name": "PartitionedCall/onnx_tf_prefix_Concat_835/axis", "op": "Const", "attr": {"value": {"tensor": {"dtype": "DT_INT32", "tensorShape": {}}}, "dtype": {"type": "DT_INT32"}}}, {"name": "PartitionedCall/strided_slice_27/stack", "op": "Const", "attr": {"value": {"tensor": {"dtype": "DT_INT32", "tensorShape": {"dim": [{"size": "1"}]}}}, "dtype": {"type": "DT_INT32"}}}, {"name": "PartitionedCall/strided_slice_27/stack_1", "op": "Const", "attr": {"value": {"tensor": {"dtype": "DT_INT32", "tensorShape": {"dim": [{"size": "1"}]}}}, "dtype": {"type": "DT_INT32"}}}, {"name": "PartitionedCall/strided_slice_27/stack_2", "op": "Const", "attr": {"value": {"tensor": {"dtype": "DT_INT32", "tensorShape": {"dim": [{"size": "1"}]}}}, "dtype": {"type": "DT_INT32"}}}, {"name": "PartitionedCall/Cast_110", "op": "Const", "attr": {"value": {"tensor": {"dtype": "DT_FLOAT", "tensorShape": {"dim": [{"size": "2"}]}}}, "dtype": {"type": "DT_FLOAT"}}}, {"name": "PartitionedCall/transpose_405/perm", "op": "Const", "attr": {"value": {"tensor": {"dtype": "DT_INT32", "tensorShape": {"dim": [{"size": "4"}]}}}, "dtype": {"type": "DT_INT32"}}}, {"name": "PartitionedCall/onnx_tf_prefix_Concat_837/axis", "op": "Const", "attr": {"value": {"tensor": {"dtype": "DT_INT32", "tensorShape": {}}}, "dtype": {"type": "DT_INT32"}}}, {"name": "PartitionedCall/Const_350", "op": "Const", "attr": {"value": {"tensor": {"dtype": "DT_INT32", "tensorShape": {"dim": [{"size": "4"}, {"size": "2"}]}}}, "dtype": {"type": "DT_INT32"}}}, {"name": "PartitionedCall/transpose_407/perm", "op": "Const", "attr": {"value": {"tensor": {"dtype": "DT_INT32", "tensorShape": {"dim": [{"size": "4"}]}}}, "dtype": {"type": "DT_INT32"}}}, {"name": "PartitionedCall/split_196", "op": "Const", "attr": {"value": {"tensor": {"dtype": "DT_FLOAT", "tensorShape": {"dim": [{"size": "3"}, {"size": "3"}, {"size": "128"}, {"size": "64"}]}}}, "dtype": {"type": "DT_FLOAT"}}}, {"name": "unknown_196", "op": "Const", "attr": {"value": {"tensor": {"dtype": "DT_FLOAT", "tensorShape": {"dim": [{"size": "64"}]}}}, "dtype": {"type": "DT_FLOAT"}}}, {"name": "PartitionedCall/transpose_408/perm", "op": "Const", "attr": {"value": {"tensor": {"dtype": "DT_INT32", "tensorShape": {"dim": [{"size": "4"}]}}}, "dtype": {"type": "DT_INT32"}}}, {"name": "PartitionedCall/Const_402", "op": "Const", "attr": {"value": {"tensor": {"dtype": "DT_INT32", "tensorShape": {"dim": [{"size": "4"}, {"size": "2"}]}}}, "dtype": {"type": "DT_INT32"}}}, {"name": "PartitionedCall/transpose_469/perm", "op": "Const", "attr": {"value": {"tensor": {"dtype": "DT_INT32", "tensorShape": {"dim": [{"size": "4"}]}}}, "dtype": {"type": "DT_INT32"}}}, {"name": "PartitionedCall/split_224", "op": "Const", "attr": {"value": {"tensor": {"dtype": "DT_FLOAT", "tensorShape": {"dim": [{"size": "3"}, {"size": "3"}, {"size": "64"}, {"size": "1"}]}}}, "dtype": {"type": "DT_FLOAT"}}}, {"name": "unknown_224", "op": "Const", "attr": {"value": {"tensor": {"dtype": "DT_FLOAT", "tensorShape": {"dim": [{"size": "1"}]}}}, "dtype": {"type": "DT_FLOAT"}}}, {"name": "PartitionedCall/transpose_470/perm", "op": "Const", "attr": {"value": {"tensor": {"dtype": "DT_INT32", "tensorShape": {"dim": [{"size": "4"}]}}}, "dtype": {"type": "DT_INT32"}}}, {"name": "PartitionedCall/Const_322", "op": "Const", "attr": {"value": {"tensor": {"dtype": "DT_INT32", "tensorShape": {"dim": [{"size": "4"}, {"size": "2"}]}}}, "dtype": {"type": "DT_INT32"}}}, {"name": "PartitionedCall/transpose_379/perm", "op": "Const", "attr": {"value": {"tensor": {"dtype": "DT_INT32", "tensorShape": {"dim": [{"size": "4"}]}}}, "dtype": {"type": "DT_INT32"}}}, {"name": "PartitionedCall/convolution_92/SpaceToBatchND/block_shape", "op": "Const", "attr": {"value": {"tensor": {"dtype": "DT_INT32", "tensorShape": {"dim": [{"size": "2"}]}}}, "dtype": {"type": "DT_INT32"}}}, {"name": "PartitionedCall/convolution_92/SpaceToBatchND/paddings", "op": "Const", "attr": {"value": {"tensor": {"dtype": "DT_INT32", "tensorShape": {"dim": [{"size": "2"}, {"size": "2"}]}}}, "dtype": {"type": "DT_INT32"}}}, {"name": "PartitionedCall/split_184", "op": "Const", "attr": {"value": {"tensor": {"dtype": "DT_FLOAT", "tensorShape": {"dim": [{"size": "3"}, {"size": "3"}, {"size": "16"}, {"size": "16"}]}}}, "dtype": {"type": "DT_FLOAT"}}}, {"name": "PartitionedCall/convolution_92/BatchToSpaceND/block_shape", "op": "Const", "attr": {"value": {"tensor": {"dtype": "DT_INT32", "tensorShape": {"dim": [{"size": "2"}]}}}, "dtype": {"type": "DT_INT32"}}}, {"name": "PartitionedCall/convolution_92/BatchToSpaceND/crops", "op": "Const", "attr": {"value": {"tensor": {"dtype": "DT_INT32", "tensorShape": {"dim": [{"size": "2"}, {"size": "2"}]}}}, "dtype": {"type": "DT_INT32"}}}, {"name": "unknown_184", "op": "Const", "attr": {"value": {"tensor": {"dtype": "DT_FLOAT", "tensorShape": {"dim": [{"size": "16"}]}}}, "dtype": {"type": "DT_FLOAT"}}}, {"name": "PartitionedCall/transpose_380/perm", "op": "Const", "attr": {"value": {"tensor": {"dtype": "DT_INT32", "tensorShape": {"dim": [{"size": "4"}]}}}, "dtype": {"type": "DT_INT32"}}}, {"name": "PartitionedCall/transpose_373/perm", "op": "Const", "attr": {"value": {"tensor": {"dtype": "DT_INT32", "tensorShape": {"dim": [{"size": "4"}]}}}, "dtype": {"type": "DT_INT32"}}}, {"name": "PartitionedCall/transpose_374/perm", "op": "Const", "attr": {"value": {"tensor": {"dtype": "DT_INT32", "tensorShape": {"dim": [{"size": "4"}]}}}, "dtype": {"type": "DT_INT32"}}}, {"name": "PartitionedCall/Const_319", "op": "Const", "attr": {"value": {"tensor": {"dtype": "DT_INT32", "tensorShape": {"dim": [{"size": "4"}, {"size": "2"}]}}}, "dtype": {"type": "DT_INT32"}}}, {"name": "PartitionedCall/transpose_376/perm", "op": "Const", "attr": {"value": {"tensor": {"dtype": "DT_INT32", "tensorShape": {"dim": [{"size": "4"}]}}}, "dtype": {"type": "DT_INT32"}}}, {"name": "PartitionedCall/split_182", "op": "Const", "attr": {"value": {"tensor": {"dtype": "DT_FLOAT", "tensorShape": {"dim": [{"size": "3"}, {"size": "3"}, {"size": "16"}, {"size": "16"}]}}}, "dtype": {"type": "DT_FLOAT"}}}, {"name": "unknown_182", "op": "Const", "attr": {"value": {"tensor": {"dtype": "DT_FLOAT", "tensorShape": {"dim": [{"size": "16"}]}}}, "dtype": {"type": "DT_FLOAT"}}}, {"name": "PartitionedCall/transpose_377/perm", "op": "Const", "attr": {"value": {"tensor": {"dtype": "DT_INT32", "tensorShape": {"dim": [{"size": "4"}]}}}, "dtype": {"type": "DT_INT32"}}}, {"name": "PartitionedCall/onnx_tf_prefix_Concat_721/axis", "op": "Const", "attr": {"value": {"tensor": {"dtype": "DT_INT32", "tensorShape": {}}}, "dtype": {"type": "DT_INT32"}}}, {"name": "PartitionedCall/Const_325", "op": "Const", "attr": {"value": {"tensor": {"dtype": "DT_INT32", "tensorShape": {"dim": [{"size": "4"}, {"size": "2"}]}}}, "dtype": {"type": "DT_INT32"}}}, {"name": "PartitionedCall/transpose_382/perm", "op": "Const", "attr": {"value": {"tensor": {"dtype": "DT_INT32", "tensorShape": {"dim": [{"size": "4"}]}}}, "dtype": {"type": "DT_INT32"}}}, {"name": "PartitionedCall/split_186", "op": "Const", "attr": {"value": {"tensor": {"dtype": "DT_FLOAT", "tensorShape": {"dim": [{"size": "3"}, {"size": "3"}, {"size": "32"}, {"size": "16"}]}}}, "dtype": {"type": "DT_FLOAT"}}}, {"name": "unknown_186", "op": "Const", "attr": {"value": {"tensor": {"dtype": "DT_FLOAT", "tensorShape": {"dim": [{"size": "16"}]}}}, "dtype": {"type": "DT_FLOAT"}}}, {"name": "PartitionedCall/transpose_383/perm", "op": "Const", "attr": {"value": {"tensor": {"dtype": "DT_INT32", "tensorShape": {"dim": [{"size": "4"}]}}}, "dtype": {"type": "DT_INT32"}}}, {"name": "PartitionedCall/transpose_384/perm", "op": "Const", "attr": {"value": {"tensor": {"dtype": "DT_INT32", "tensorShape": {"dim": [{"size": "4"}]}}}, "dtype": {"type": "DT_INT32"}}}, {"name": "PartitionedCall/onnx_tf_prefix_Constant_733", "op": "Const", "attr": {"value": {"tensor": {"dtype": "DT_FLOAT", "tensorShape": {"dim": [{"size": "2"}]}}}, "dtype": {"type": "DT_FLOAT"}}}, {"name": "PartitionedCall/onnx_tf_prefix_Cast_734", "op": "Const", "attr": {"value": {"tensor": {"dtype": "DT_FLOAT", "tensorShape": {"dim": [{"size": "2"}]}}}, "dtype": {"type": "DT_FLOAT"}}}, {"name": "PartitionedCall/onnx_tf_prefix_Shape_735", "op": "Const", "attr": {"value": {"tensor": {"dtype": "DT_INT64", "tensorShape": {"dim": [{"size": "4"}]}}}, "dtype": {"type": "DT_INT64"}}}, {"name": "PartitionedCall/SelectV2_93", "op": "Const", "attr": {"value": {"tensor": {"dtype": "DT_INT64", "tensorShape": {"dim": [{"size": "1"}]}}}, "dtype": {"type": "DT_INT64"}}}, {"name": "PartitionedCall/zeros_23", "op": "Const", "attr": {"value": {"tensor": {"dtype": "DT_INT64", "tensorShape": {}}}, "dtype": {"type": "DT_INT64"}}}, {"name": "PartitionedCall/Const_329", "op": "Const", "attr": {"value": {"tensor": {"dtype": "DT_INT64", "tensorShape": {}}}, "dtype": {"type": "DT_INT64"}}}, {"name": "PartitionedCall/Shape_23", "op": "Const", "attr": {"value": {"tensor": {"dtype": "DT_INT64", "tensorShape": {"dim": [{"size": "1"}]}}}, "dtype": {"type": "DT_INT64"}}}, {"name": "PartitionedCall/ExpandDims_23", "op": "Const", "attr": {"value": {"tensor": {"dtype": "DT_INT64", "tensorShape": {"dim": [{"size": "1"}, {"size": "1"}]}}}, "dtype": {"type": "DT_INT64"}}}, {"name": "PartitionedCall/Cast_93", "op": "Const", "attr": {"value": {"tensor": {"dtype": "DT_INT64", "tensorShape": {"dim": [{"size": "1"}]}}}, "dtype": {"type": "DT_INT64"}}}, {"name": "PartitionedCall/SelectV2_94", "op": "Const", "attr": {"value": {"tensor": {"dtype": "DT_INT64", "tensorShape": {"dim": [{"size": "1"}]}}}, "dtype": {"type": "DT_INT64"}}}, {"name": "PartitionedCall/Const_328", "op": "Const", "attr": {"value": {"tensor": {"dtype": "DT_INT64", "tensorShape": {}}}, "dtype": {"type": "DT_INT64"}}}, {"name": "PartitionedCall/ones_23", "op": "Const", "attr": {"value": {"tensor": {"dtype": "DT_INT64", "tensorShape": {"dim": [{"size": "1"}]}}}, "dtype": {"type": "DT_INT64"}}}, {"name": "PartitionedCall/onnx_tf_prefix_Concat_742/axis", "op": "Const", "attr": {"value": {"tensor": {"dtype": "DT_INT32", "tensorShape": {}}}, "dtype": {"type": "DT_INT32"}}}, {"name": "PartitionedCall/strided_slice_23/stack", "op": "Const", "attr": {"value": {"tensor": {"dtype": "DT_INT32", "tensorShape": {"dim": [{"size": "1"}]}}}, "dtype": {"type": "DT_INT32"}}}, {"name": "PartitionedCall/strided_slice_23/stack_1", "op": "Const", "attr": {"value": {"tensor": {"dtype": "DT_INT32", "tensorShape": {"dim": [{"size": "1"}]}}}, "dtype": {"type": "DT_INT32"}}}, {"name": "PartitionedCall/strided_slice_23/stack_2", "op": "Const", "attr": {"value": {"tensor": {"dtype": "DT_INT32", "tensorShape": {"dim": [{"size": "1"}]}}}, "dtype": {"type": "DT_INT32"}}}, {"name": "PartitionedCall/Cast_94", "op": "Const", "attr": {"value": {"tensor": {"dtype": "DT_FLOAT", "tensorShape": {"dim": [{"size": "2"}]}}}, "dtype": {"type": "DT_FLOAT"}}}, {"name": "PartitionedCall/transpose_385/perm", "op": "Const", "attr": {"value": {"tensor": {"dtype": "DT_INT32", "tensorShape": {"dim": [{"size": "4"}]}}}, "dtype": {"type": "DT_INT32"}}}, {"name": "PartitionedCall/transpose_368/perm", "op": "Const", "attr": {"value": {"tensor": {"dtype": "DT_INT32", "tensorShape": {"dim": [{"size": "4"}]}}}, "dtype": {"type": "DT_INT32"}}}, {"name": "PartitionedCall/transpose_369/perm", "op": "Const", "attr": {"value": {"tensor": {"dtype": "DT_INT32", "tensorShape": {"dim": [{"size": "4"}]}}}, "dtype": {"type": "DT_INT32"}}}, {"name": "PartitionedCall/Const_316", "op": "Const", "attr": {"value": {"tensor": {"dtype": "DT_INT32", "tensorShape": {"dim": [{"size": "4"}, {"size": "2"}]}}}, "dtype": {"type": "DT_INT32"}}}, {"name": "PartitionedCall/transpose_371/perm", "op": "Const", "attr": {"value": {"tensor": {"dtype": "DT_INT32", "tensorShape": {"dim": [{"size": "4"}]}}}, "dtype": {"type": "DT_INT32"}}}, {"name": "PartitionedCall/split_180", "op": "Const", "attr": {"value": {"tensor": {"dtype": "DT_FLOAT", "tensorShape": {"dim": [{"size": "3"}, {"size": "3"}, {"size": "16"}, {"size": "16"}]}}}, "dtype": {"type": "DT_FLOAT"}}}, {"name": "unknown_180", "op": "Const", "attr": {"value": {"tensor": {"dtype": "DT_FLOAT", "tensorShape": {"dim": [{"size": "16"}]}}}, "dtype": {"type": "DT_FLOAT"}}}, {"name": "PartitionedCall/transpose_372/perm", "op": "Const", "attr": {"value": {"tensor": {"dtype": "DT_INT32", "tensorShape": {"dim": [{"size": "4"}]}}}, "dtype": {"type": "DT_INT32"}}}, {"name": "PartitionedCall/onnx_tf_prefix_Concat_744/axis", "op": "Const", "attr": {"value": {"tensor": {"dtype": "DT_INT32", "tensorShape": {}}}, "dtype": {"type": "DT_INT32"}}}, {"name": "PartitionedCall/Const_330", "op": "Const", "attr": {"value": {"tensor": {"dtype": "DT_INT32", "tensorShape": {"dim": [{"size": "4"}, {"size": "2"}]}}}, "dtype": {"type": "DT_INT32"}}}, {"name": "PartitionedCall/transpose_387/perm", "op": "Const", "attr": {"value": {"tensor": {"dtype": "DT_INT32", "tensorShape": {"dim": [{"size": "4"}]}}}, "dtype": {"type": "DT_INT32"}}}, {"name": "PartitionedCall/split_188", "op": "Const", "attr": {"value": {"tensor": {"dtype": "DT_FLOAT", "tensorShape": {"dim": [{"size": "3"}, {"size": "3"}, {"size": "32"}, {"size": "16"}]}}}, "dtype": {"type": "DT_FLOAT"}}}, {"name": "unknown_188", "op": "Const", "attr": {"value": {"tensor": {"dtype": "DT_FLOAT", "tensorShape": {"dim": [{"size": "16"}]}}}, "dtype": {"type": "DT_FLOAT"}}}, {"name": "PartitionedCall/transpose_388/perm", "op": "Const", "attr": {"value": {"tensor": {"dtype": "DT_INT32", "tensorShape": {"dim": [{"size": "4"}]}}}, "dtype": {"type": "DT_INT32"}}}, {"name": "PartitionedCall/transpose_389/perm", "op": "Const", "attr": {"value": {"tensor": {"dtype": "DT_INT32", "tensorShape": {"dim": [{"size": "4"}]}}}, "dtype": {"type": "DT_INT32"}}}, {"name": "PartitionedCall/onnx_tf_prefix_Constant_756", "op": "Const", "attr": {"value": {"tensor": {"dtype": "DT_FLOAT", "tensorShape": {"dim": [{"size": "2"}]}}}, "dtype": {"type": "DT_FLOAT"}}}, {"name": "PartitionedCall/onnx_tf_prefix_Cast_757", "op": "Const", "attr": {"value": {"tensor": {"dtype": "DT_FLOAT", "tensorShape": {"dim": [{"size": "2"}]}}}, "dtype": {"type": "DT_FLOAT"}}}, {"name": "PartitionedCall/onnx_tf_prefix_Shape_758", "op": "Const", "attr": {"value": {"tensor": {"dtype": "DT_INT64", "tensorShape": {"dim": [{"size": "4"}]}}}, "dtype": {"type": "DT_INT64"}}}, {"name": "PartitionedCall/SelectV2_97", "op": "Const", "attr": {"value": {"tensor": {"dtype": "DT_INT64", "tensorShape": {"dim": [{"size": "1"}]}}}, "dtype": {"type": "DT_INT64"}}}, {"name": "PartitionedCall/zeros_24", "op": "Const", "attr": {"value": {"tensor": {"dtype": "DT_INT64", "tensorShape": {}}}, "dtype": {"type": "DT_INT64"}}}, {"name": "PartitionedCall/Const_334", "op": "Const", "attr": {"value": {"tensor": {"dtype": "DT_INT64", "tensorShape": {}}}, "dtype": {"type": "DT_INT64"}}}, {"name": "PartitionedCall/Shape_24", "op": "Const", "attr": {"value": {"tensor": {"dtype": "DT_INT64", "tensorShape": {"dim": [{"size": "1"}]}}}, "dtype": {"type": "DT_INT64"}}}, {"name": "PartitionedCall/ExpandDims_24", "op": "Const", "attr": {"value": {"tensor": {"dtype": "DT_INT64", "tensorShape": {"dim": [{"size": "1"}, {"size": "1"}]}}}, "dtype": {"type": "DT_INT64"}}}, {"name": "PartitionedCall/Cast_97", "op": "Const", "attr": {"value": {"tensor": {"dtype": "DT_INT64", "tensorShape": {"dim": [{"size": "1"}]}}}, "dtype": {"type": "DT_INT64"}}}, {"name": "PartitionedCall/SelectV2_98", "op": "Const", "attr": {"value": {"tensor": {"dtype": "DT_INT64", "tensorShape": {"dim": [{"size": "1"}]}}}, "dtype": {"type": "DT_INT64"}}}, {"name": "PartitionedCall/Const_333", "op": "Const", "attr": {"value": {"tensor": {"dtype": "DT_INT64", "tensorShape": {}}}, "dtype": {"type": "DT_INT64"}}}, {"name": "PartitionedCall/ones_24", "op": "Const", "attr": {"value": {"tensor": {"dtype": "DT_INT64", "tensorShape": {"dim": [{"size": "1"}]}}}, "dtype": {"type": "DT_INT64"}}}, {"name": "PartitionedCall/onnx_tf_prefix_Concat_765/axis", "op": "Const", "attr": {"value": {"tensor": {"dtype": "DT_INT32", "tensorShape": {}}}, "dtype": {"type": "DT_INT32"}}}, {"name": "PartitionedCall/strided_slice_24/stack", "op": "Const", "attr": {"value": {"tensor": {"dtype": "DT_INT32", "tensorShape": {"dim": [{"size": "1"}]}}}, "dtype": {"type": "DT_INT32"}}}, {"name": "PartitionedCall/strided_slice_24/stack_1", "op": "Const", "attr": {"value": {"tensor": {"dtype": "DT_INT32", "tensorShape": {"dim": [{"size": "1"}]}}}, "dtype": {"type": "DT_INT32"}}}, {"name": "PartitionedCall/strided_slice_24/stack_2", "op": "Const", "attr": {"value": {"tensor": {"dtype": "DT_INT32", "tensorShape": {"dim": [{"size": "1"}]}}}, "dtype": {"type": "DT_INT32"}}}, {"name": "PartitionedCall/Cast_98", "op": "Const", "attr": {"value": {"tensor": {"dtype": "DT_FLOAT", "tensorShape": {"dim": [{"size": "2"}]}}}, "dtype": {"type": "DT_FLOAT"}}}, {"name": "PartitionedCall/transpose_390/perm", "op": "Const", "attr": {"value": {"tensor": {"dtype": "DT_INT32", "tensorShape": {"dim": [{"size": "4"}]}}}, "dtype": {"type": "DT_INT32"}}}, {"name": "PartitionedCall/transpose_363/perm", "op": "Const", "attr": {"value": {"tensor": {"dtype": "DT_INT32", "tensorShape": {"dim": [{"size": "4"}]}}}, "dtype": {"type": "DT_INT32"}}}, {"name": "PartitionedCall/transpose_364/perm", "op": "Const", "attr": {"value": {"tensor": {"dtype": "DT_INT32", "tensorShape": {"dim": [{"size": "4"}]}}}, "dtype": {"type": "DT_INT32"}}}, {"name": "PartitionedCall/Const_313", "op": "Const", "attr": {"value": {"tensor": {"dtype": "DT_INT32", "tensorShape": {"dim": [{"size": "4"}, {"size": "2"}]}}}, "dtype": {"type": "DT_INT32"}}}, {"name": "PartitionedCall/transpose_366/perm", "op": "Const", "attr": {"value": {"tensor": {"dtype": "DT_INT32", "tensorShape": {"dim": [{"size": "4"}]}}}, "dtype": {"type": "DT_INT32"}}}, {"name": "PartitionedCall/split_178", "op": "Const", "attr": {"value": {"tensor": {"dtype": "DT_FLOAT", "tensorShape": {"dim": [{"size": "3"}, {"size": "3"}, {"size": "16"}, {"size": "16"}]}}}, "dtype": {"type": "DT_FLOAT"}}}, {"name": "unknown_178", "op": "Const", "attr": {"value": {"tensor": {"dtype": "DT_FLOAT", "tensorShape": {"dim": [{"size": "16"}]}}}, "dtype": {"type": "DT_FLOAT"}}}, {"name": "PartitionedCall/transpose_367/perm", "op": "Const", "attr": {"value": {"tensor": {"dtype": "DT_INT32", "tensorShape": {"dim": [{"size": "4"}]}}}, "dtype": {"type": "DT_INT32"}}}, {"name": "PartitionedCall/onnx_tf_prefix_Concat_767/axis", "op": "Const", "attr": {"value": {"tensor": {"dtype": "DT_INT32", "tensorShape": {}}}, "dtype": {"type": "DT_INT32"}}}, {"name": "PartitionedCall/Const_335", "op": "Const", "attr": {"value": {"tensor": {"dtype": "DT_INT32", "tensorShape": {"dim": [{"size": "4"}, {"size": "2"}]}}}, "dtype": {"type": "DT_INT32"}}}, {"name": "PartitionedCall/transpose_392/perm", "op": "Const", "attr": {"value": {"tensor": {"dtype": "DT_INT32", "tensorShape": {"dim": [{"size": "4"}]}}}, "dtype": {"type": "DT_INT32"}}}, {"name": "PartitionedCall/split_190", "op": "Const", "attr": {"value": {"tensor": {"dtype": "DT_FLOAT", "tensorShape": {"dim": [{"size": "3"}, {"size": "3"}, {"size": "32"}, {"size": "16"}]}}}, "dtype": {"type": "DT_FLOAT"}}}, {"name": "unknown_190", "op": "Const", "attr": {"value": {"tensor": {"dtype": "DT_FLOAT", "tensorShape": {"dim": [{"size": "16"}]}}}, "dtype": {"type": "DT_FLOAT"}}}, {"name": "PartitionedCall/transpose_393/perm", "op": "Const", "attr": {"value": {"tensor": {"dtype": "DT_INT32", "tensorShape": {"dim": [{"size": "4"}]}}}, "dtype": {"type": "DT_INT32"}}}, {"name": "PartitionedCall/transpose_394/perm", "op": "Const", "attr": {"value": {"tensor": {"dtype": "DT_INT32", "tensorShape": {"dim": [{"size": "4"}]}}}, "dtype": {"type": "DT_INT32"}}}, {"name": "PartitionedCall/onnx_tf_prefix_Constant_779", "op": "Const", "attr": {"value": {"tensor": {"dtype": "DT_FLOAT", "tensorShape": {"dim": [{"size": "2"}]}}}, "dtype": {"type": "DT_FLOAT"}}}, {"name": "PartitionedCall/onnx_tf_prefix_Cast_780", "op": "Const", "attr": {"value": {"tensor": {"dtype": "DT_FLOAT", "tensorShape": {"dim": [{"size": "2"}]}}}, "dtype": {"type": "DT_FLOAT"}}}, {"name": "PartitionedCall/onnx_tf_prefix_Shape_781", "op": "Const", "attr": {"value": {"tensor": {"dtype": "DT_INT64", "tensorShape": {"dim": [{"size": "4"}]}}}, "dtype": {"type": "DT_INT64"}}}, {"name": "PartitionedCall/SelectV2_101", "op": "Const", "attr": {"value": {"tensor": {"dtype": "DT_INT64", "tensorShape": {"dim": [{"size": "1"}]}}}, "dtype": {"type": "DT_INT64"}}}, {"name": "PartitionedCall/zeros_25", "op": "Const", "attr": {"value": {"tensor": {"dtype": "DT_INT64", "tensorShape": {}}}, "dtype": {"type": "DT_INT64"}}}, {"name": "PartitionedCall/Const_339", "op": "Const", "attr": {"value": {"tensor": {"dtype": "DT_INT64", "tensorShape": {}}}, "dtype": {"type": "DT_INT64"}}}, {"name": "PartitionedCall/Shape_25", "op": "Const", "attr": {"value": {"tensor": {"dtype": "DT_INT64", "tensorShape": {"dim": [{"size": "1"}]}}}, "dtype": {"type": "DT_INT64"}}}, {"name": "PartitionedCall/ExpandDims_25", "op": "Const", "attr": {"value": {"tensor": {"dtype": "DT_INT64", "tensorShape": {"dim": [{"size": "1"}, {"size": "1"}]}}}, "dtype": {"type": "DT_INT64"}}}, {"name": "PartitionedCall/Cast_101", "op": "Const", "attr": {"value": {"tensor": {"dtype": "DT_INT64", "tensorShape": {"dim": [{"size": "1"}]}}}, "dtype": {"type": "DT_INT64"}}}, {"name": "PartitionedCall/SelectV2_102", "op": "Const", "attr": {"value": {"tensor": {"dtype": "DT_INT64", "tensorShape": {"dim": [{"size": "1"}]}}}, "dtype": {"type": "DT_INT64"}}}, {"name": "PartitionedCall/Const_338", "op": "Const", "attr": {"value": {"tensor": {"dtype": "DT_INT64", "tensorShape": {}}}, "dtype": {"type": "DT_INT64"}}}, {"name": "PartitionedCall/ones_25", "op": "Const", "attr": {"value": {"tensor": {"dtype": "DT_INT64", "tensorShape": {"dim": [{"size": "1"}]}}}, "dtype": {"type": "DT_INT64"}}}, {"name": "PartitionedCall/onnx_tf_prefix_Concat_788/axis", "op": "Const", "attr": {"value": {"tensor": {"dtype": "DT_INT32", "tensorShape": {}}}, "dtype": {"type": "DT_INT32"}}}, {"name": "PartitionedCall/strided_slice_25/stack", "op": "Const", "attr": {"value": {"tensor": {"dtype": "DT_INT32", "tensorShape": {"dim": [{"size": "1"}]}}}, "dtype": {"type": "DT_INT32"}}}, {"name": "PartitionedCall/strided_slice_25/stack_1", "op": "Const", "attr": {"value": {"tensor": {"dtype": "DT_INT32", "tensorShape": {"dim": [{"size": "1"}]}}}, "dtype": {"type": "DT_INT32"}}}, {"name": "PartitionedCall/strided_slice_25/stack_2", "op": "Const", "attr": {"value": {"tensor": {"dtype": "DT_INT32", "tensorShape": {"dim": [{"size": "1"}]}}}, "dtype": {"type": "DT_INT32"}}}, {"name": "PartitionedCall/Cast_102", "op": "Const", "attr": {"value": {"tensor": {"dtype": "DT_FLOAT", "tensorShape": {"dim": [{"size": "2"}]}}}, "dtype": {"type": "DT_FLOAT"}}}, {"name": "PartitionedCall/transpose_395/perm", "op": "Const", "attr": {"value": {"tensor": {"dtype": "DT_INT32", "tensorShape": {"dim": [{"size": "4"}]}}}, "dtype": {"type": "DT_INT32"}}}, {"name": "PartitionedCall/transpose_358/perm", "op": "Const", "attr": {"value": {"tensor": {"dtype": "DT_INT32", "tensorShape": {"dim": [{"size": "4"}]}}}, "dtype": {"type": "DT_INT32"}}}, {"name": "PartitionedCall/transpose_359/perm", "op": "Const", "attr": {"value": {"tensor": {"dtype": "DT_INT32", "tensorShape": {"dim": [{"size": "4"}]}}}, "dtype": {"type": "DT_INT32"}}}, {"name": "PartitionedCall/Const_310", "op": "Const", "attr": {"value": {"tensor": {"dtype": "DT_INT32", "tensorShape": {"dim": [{"size": "4"}, {"size": "2"}]}}}, "dtype": {"type": "DT_INT32"}}}, {"name": "PartitionedCall/transpose_361/perm", "op": "Const", "attr": {"value": {"tensor": {"dtype": "DT_INT32", "tensorShape": {"dim": [{"size": "4"}]}}}, "dtype": {"type": "DT_INT32"}}}, {"name": "PartitionedCall/split_176", "op": "Const", "attr": {"value": {"tensor": {"dtype": "DT_FLOAT", "tensorShape": {"dim": [{"size": "3"}, {"size": "3"}, {"size": "16"}, {"size": "16"}]}}}, "dtype": {"type": "DT_FLOAT"}}}, {"name": "unknown_176", "op": "Const", "attr": {"value": {"tensor": {"dtype": "DT_FLOAT", "tensorShape": {"dim": [{"size": "16"}]}}}, "dtype": {"type": "DT_FLOAT"}}}, {"name": "PartitionedCall/transpose_362/perm", "op": "Const", "attr": {"value": {"tensor": {"dtype": "DT_INT32", "tensorShape": {"dim": [{"size": "4"}]}}}, "dtype": {"type": "DT_INT32"}}}, {"name": "PartitionedCall/onnx_tf_prefix_Concat_790/axis", "op": "Const", "attr": {"value": {"tensor": {"dtype": "DT_INT32", "tensorShape": {}}}, "dtype": {"type": "DT_INT32"}}}, {"name": "PartitionedCall/Const_340", "op": "Const", "attr": {"value": {"tensor": {"dtype": "DT_INT32", "tensorShape": {"dim": [{"size": "4"}, {"size": "2"}]}}}, "dtype": {"type": "DT_INT32"}}}, {"name": "PartitionedCall/transpose_397/perm", "op": "Const", "attr": {"value": {"tensor": {"dtype": "DT_INT32", "tensorShape": {"dim": [{"size": "4"}]}}}, "dtype": {"type": "DT_INT32"}}}, {"name": "PartitionedCall/split_192", "op": "Const", "attr": {"value": {"tensor": {"dtype": "DT_FLOAT", "tensorShape": {"dim": [{"size": "3"}, {"size": "3"}, {"size": "32"}, {"size": "16"}]}}}, "dtype": {"type": "DT_FLOAT"}}}, {"name": "unknown_192", "op": "Const", "attr": {"value": {"tensor": {"dtype": "DT_FLOAT", "tensorShape": {"dim": [{"size": "16"}]}}}, "dtype": {"type": "DT_FLOAT"}}}, {"name": "PartitionedCall/transpose_398/perm", "op": "Const", "attr": {"value": {"tensor": {"dtype": "DT_INT32", "tensorShape": {"dim": [{"size": "4"}]}}}, "dtype": {"type": "DT_INT32"}}}, {"name": "PartitionedCall/transpose_399/perm", "op": "Const", "attr": {"value": {"tensor": {"dtype": "DT_INT32", "tensorShape": {"dim": [{"size": "4"}]}}}, "dtype": {"type": "DT_INT32"}}}, {"name": "PartitionedCall/onnx_tf_prefix_Constant_802", "op": "Const", "attr": {"value": {"tensor": {"dtype": "DT_FLOAT", "tensorShape": {"dim": [{"size": "2"}]}}}, "dtype": {"type": "DT_FLOAT"}}}, {"name": "PartitionedCall/onnx_tf_prefix_Cast_803", "op": "Const", "attr": {"value": {"tensor": {"dtype": "DT_FLOAT", "tensorShape": {"dim": [{"size": "2"}]}}}, "dtype": {"type": "DT_FLOAT"}}}, {"name": "PartitionedCall/onnx_tf_prefix_Shape_804", "op": "Const", "attr": {"value": {"tensor": {"dtype": "DT_INT64", "tensorShape": {"dim": [{"size": "4"}]}}}, "dtype": {"type": "DT_INT64"}}}, {"name": "PartitionedCall/SelectV2_105", "op": "Const", "attr": {"value": {"tensor": {"dtype": "DT_INT64", "tensorShape": {"dim": [{"size": "1"}]}}}, "dtype": {"type": "DT_INT64"}}}, {"name": "PartitionedCall/zeros_26", "op": "Const", "attr": {"value": {"tensor": {"dtype": "DT_INT64", "tensorShape": {}}}, "dtype": {"type": "DT_INT64"}}}, {"name": "PartitionedCall/Const_344", "op": "Const", "attr": {"value": {"tensor": {"dtype": "DT_INT64", "tensorShape": {}}}, "dtype": {"type": "DT_INT64"}}}, {"name": "PartitionedCall/Shape_26", "op": "Const", "attr": {"value": {"tensor": {"dtype": "DT_INT64", "tensorShape": {"dim": [{"size": "1"}]}}}, "dtype": {"type": "DT_INT64"}}}, {"name": "PartitionedCall/ExpandDims_26", "op": "Const", "attr": {"value": {"tensor": {"dtype": "DT_INT64", "tensorShape": {"dim": [{"size": "1"}, {"size": "1"}]}}}, "dtype": {"type": "DT_INT64"}}}, {"name": "PartitionedCall/Cast_105", "op": "Const", "attr": {"value": {"tensor": {"dtype": "DT_INT64", "tensorShape": {"dim": [{"size": "1"}]}}}, "dtype": {"type": "DT_INT64"}}}, {"name": "PartitionedCall/SelectV2_106", "op": "Const", "attr": {"value": {"tensor": {"dtype": "DT_INT64", "tensorShape": {"dim": [{"size": "1"}]}}}, "dtype": {"type": "DT_INT64"}}}, {"name": "PartitionedCall/Const_343", "op": "Const", "attr": {"value": {"tensor": {"dtype": "DT_INT64", "tensorShape": {}}}, "dtype": {"type": "DT_INT64"}}}, {"name": "PartitionedCall/ones_26", "op": "Const", "attr": {"value": {"tensor": {"dtype": "DT_INT64", "tensorShape": {"dim": [{"size": "1"}]}}}, "dtype": {"type": "DT_INT64"}}}, {"name": "PartitionedCall/onnx_tf_prefix_Concat_811/axis", "op": "Const", "attr": {"value": {"tensor": {"dtype": "DT_INT32", "tensorShape": {}}}, "dtype": {"type": "DT_INT32"}}}, {"name": "PartitionedCall/strided_slice_26/stack", "op": "Const", "attr": {"value": {"tensor": {"dtype": "DT_INT32", "tensorShape": {"dim": [{"size": "1"}]}}}, "dtype": {"type": "DT_INT32"}}}, {"name": "PartitionedCall/strided_slice_26/stack_1", "op": "Const", "attr": {"value": {"tensor": {"dtype": "DT_INT32", "tensorShape": {"dim": [{"size": "1"}]}}}, "dtype": {"type": "DT_INT32"}}}, {"name": "PartitionedCall/strided_slice_26/stack_2", "op": "Const", "attr": {"value": {"tensor": {"dtype": "DT_INT32", "tensorShape": {"dim": [{"size": "1"}]}}}, "dtype": {"type": "DT_INT32"}}}, {"name": "PartitionedCall/Cast_106", "op": "Const", "attr": {"value": {"tensor": {"dtype": "DT_FLOAT", "tensorShape": {"dim": [{"size": "2"}]}}}, "dtype": {"type": "DT_FLOAT"}}}, {"name": "PartitionedCall/transpose_400/perm", "op": "Const", "attr": {"value": {"tensor": {"dtype": "DT_INT32", "tensorShape": {"dim": [{"size": "4"}]}}}, "dtype": {"type": "DT_INT32"}}}, {"name": "PartitionedCall/Const_307", "op": "Const", "attr": {"value": {"tensor": {"dtype": "DT_INT32", "tensorShape": {"dim": [{"size": "4"}, {"size": "2"}]}}}, "dtype": {"type": "DT_INT32"}}}, {"name": "PartitionedCall/transpose_356/perm", "op": "Const", "attr": {"value": {"tensor": {"dtype": "DT_INT32", "tensorShape": {"dim": [{"size": "4"}]}}}, "dtype": {"type": "DT_INT32"}}}, {"name": "PartitionedCall/split_174", "op": "Const", "attr": {"value": {"tensor": {"dtype": "DT_FLOAT", "tensorShape": {"dim": [{"size": "3"}, {"size": "3"}, {"size": "64"}, {"size": "16"}]}}}, "dtype": {"type": "DT_FLOAT"}}}, {"name": "unknown_174", "op": "Const", "attr": {"value": {"tensor": {"dtype": "DT_FLOAT", "tensorShape": {"dim": [{"size": "16"}]}}}, "dtype": {"type": "DT_FLOAT"}}}, {"name": "PartitionedCall/transpose_357/perm", "op": "Const", "attr": {"value": {"tensor": {"dtype": "DT_INT32", "tensorShape": {"dim": [{"size": "4"}]}}}, "dtype": {"type": "DT_INT32"}}}, {"name": "PartitionedCall/onnx_tf_prefix_Concat_813/axis", "op": "Const", "attr": {"value": {"tensor": {"dtype": "DT_INT32", "tensorShape": {}}}, "dtype": {"type": "DT_INT32"}}}, {"name": "PartitionedCall/Const_345", "op": "Const", "attr": {"value": {"tensor": {"dtype": "DT_INT32", "tensorShape": {"dim": [{"size": "4"}, {"size": "2"}]}}}, "dtype": {"type": "DT_INT32"}}}, {"name": "PartitionedCall/transpose_402/perm", "op": "Const", "attr": {"value": {"tensor": {"dtype": "DT_INT32", "tensorShape": {"dim": [{"size": "4"}]}}}, "dtype": {"type": "DT_INT32"}}}, {"name": "PartitionedCall/split_194", "op": "Const", "attr": {"value": {"tensor": {"dtype": "DT_FLOAT", "tensorShape": {"dim": [{"size": "3"}, {"size": "3"}, {"size": "32"}, {"size": "64"}]}}}, "dtype": {"type": "DT_FLOAT"}}}, {"name": "unknown_194", "op": "Const", "attr": {"value": {"tensor": {"dtype": "DT_FLOAT", "tensorShape": {"dim": [{"size": "64"}]}}}, "dtype": {"type": "DT_FLOAT"}}}, {"name": "PartitionedCall/transpose_403/perm", "op": "Const", "attr": {"value": {"tensor": {"dtype": "DT_INT32", "tensorShape": {"dim": [{"size": "4"}]}}}, "dtype": {"type": "DT_INT32"}}}, {"name": "PartitionedCall/transpose_350/perm", "op": "Const", "attr": {"value": {"tensor": {"dtype": "DT_INT32", "tensorShape": {"dim": [{"size": "4"}]}}}, "dtype": {"type": "DT_INT32"}}}, {"name": "PartitionedCall/onnx_tf_prefix_Constant_691", "op": "Const", "attr": {"value": {"tensor": {"dtype": "DT_FLOAT", "tensorShape": {"dim": [{"size": "2"}]}}}, "dtype": {"type": "DT_FLOAT"}}}, {"name": "PartitionedCall/onnx_tf_prefix_Cast_692", "op": "Const", "attr": {"value": {"tensor": {"dtype": "DT_FLOAT", "tensorShape": {"dim": [{"size": "2"}]}}}, "dtype": {"type": "DT_FLOAT"}}}, {"name": "PartitionedCall/onnx_tf_prefix_Shape_693", "op": "Const", "attr": {"value": {"tensor": {"dtype": "DT_INT64", "tensorShape": {"dim": [{"size": "4"}]}}}, "dtype": {"type": "DT_INT64"}}}, {"name": "PartitionedCall/SelectV2_89", "op": "Const", "attr": {"value": {"tensor": {"dtype": "DT_INT64", "tensorShape": {"dim": [{"size": "1"}]}}}, "dtype": {"type": "DT_INT64"}}}, {"name": "PartitionedCall/zeros_22", "op": "Const", "attr": {"value": {"tensor": {"dtype": "DT_INT64", "tensorShape": {}}}, "dtype": {"type": "DT_INT64"}}}, {"name": "PartitionedCall/Const_303", "op": "Const", "attr": {"value": {"tensor": {"dtype": "DT_INT64", "tensorShape": {}}}, "dtype": {"type": "DT_INT64"}}}, {"name": "PartitionedCall/Shape_22", "op": "Const", "attr": {"value": {"tensor": {"dtype": "DT_INT64", "tensorShape": {"dim": [{"size": "1"}]}}}, "dtype": {"type": "DT_INT64"}}}, {"name": "PartitionedCall/ExpandDims_22", "op": "Const", "attr": {"value": {"tensor": {"dtype": "DT_INT64", "tensorShape": {"dim": [{"size": "1"}, {"size": "1"}]}}}, "dtype": {"type": "DT_INT64"}}}, {"name": "PartitionedCall/Cast_89", "op": "Const", "attr": {"value": {"tensor": {"dtype": "DT_INT64", "tensorShape": {"dim": [{"size": "1"}]}}}, "dtype": {"type": "DT_INT64"}}}, {"name": "PartitionedCall/SelectV2_90", "op": "Const", "attr": {"value": {"tensor": {"dtype": "DT_INT64", "tensorShape": {"dim": [{"size": "1"}]}}}, "dtype": {"type": "DT_INT64"}}}, {"name": "PartitionedCall/Const_302", "op": "Const", "attr": {"value": {"tensor": {"dtype": "DT_INT64", "tensorShape": {}}}, "dtype": {"type": "DT_INT64"}}}, {"name": "PartitionedCall/ones_22", "op": "Const", "attr": {"value": {"tensor": {"dtype": "DT_INT64", "tensorShape": {"dim": [{"size": "1"}]}}}, "dtype": {"type": "DT_INT64"}}}, {"name": "PartitionedCall/onnx_tf_prefix_Concat_700/axis", "op": "Const", "attr": {"value": {"tensor": {"dtype": "DT_INT32", "tensorShape": {}}}, "dtype": {"type": "DT_INT32"}}}, {"name": "PartitionedCall/strided_slice_22/stack", "op": "Const", "attr": {"value": {"tensor": {"dtype": "DT_INT32", "tensorShape": {"dim": [{"size": "1"}]}}}, "dtype": {"type": "DT_INT32"}}}, {"name": "PartitionedCall/strided_slice_22/stack_1", "op": "Const", "attr": {"value": {"tensor": {"dtype": "DT_INT32", "tensorShape": {"dim": [{"size": "1"}]}}}, "dtype": {"type": "DT_INT32"}}}, {"name": "PartitionedCall/strided_slice_22/stack_2", "op": "Const", "attr": {"value": {"tensor": {"dtype": "DT_INT32", "tensorShape": {"dim": [{"size": "1"}]}}}, "dtype": {"type": "DT_INT32"}}}, {"name": "PartitionedCall/Cast_90", "op": "Const", "attr": {"value": {"tensor": {"dtype": "DT_FLOAT", "tensorShape": {"dim": [{"size": "2"}]}}}, "dtype": {"type": "DT_FLOAT"}}}, {"name": "PartitionedCall/transpose_351/perm", "op": "Const", "attr": {"value": {"tensor": {"dtype": "DT_INT32", "tensorShape": {"dim": [{"size": "4"}]}}}, "dtype": {"type": "DT_INT32"}}}, {"name": "PartitionedCall/onnx_tf_prefix_Concat_702/axis", "op": "Const", "attr": {"value": {"tensor": {"dtype": "DT_INT32", "tensorShape": {}}}, "dtype": {"type": "DT_INT32"}}}, {"name": "PartitionedCall/Const_304", "op": "Const", "attr": {"value": {"tensor": {"dtype": "DT_INT32", "tensorShape": {"dim": [{"size": "4"}, {"size": "2"}]}}}, "dtype": {"type": "DT_INT32"}}}, {"name": "PartitionedCall/transpose_353/perm", "op": "Const", "attr": {"value": {"tensor": {"dtype": "DT_INT32", "tensorShape": {"dim": [{"size": "4"}]}}}, "dtype": {"type": "DT_INT32"}}}, {"name": "PartitionedCall/split_172", "op": "Const", "attr": {"value": {"tensor": {"dtype": "DT_FLOAT", "tensorShape": {"dim": [{"size": "3"}, {"size": "3"}, {"size": "128"}, {"size": "64"}]}}}, "dtype": {"type": "DT_FLOAT"}}}, {"name": "unknown_172", "op": "Const", "attr": {"value": {"tensor": {"dtype": "DT_FLOAT", "tensorShape": {"dim": [{"size": "64"}]}}}, "dtype": {"type": "DT_FLOAT"}}}, {"name": "PartitionedCall/transpose_354/perm", "op": "Const", "attr": {"value": {"tensor": {"dtype": "DT_INT32", "tensorShape": {"dim": [{"size": "4"}]}}}, "dtype": {"type": "DT_INT32"}}}, {"name": "PartitionedCall/Const_405", "op": "Const", "attr": {"value": {"tensor": {"dtype": "DT_INT32", "tensorShape": {"dim": [{"size": "4"}, {"size": "2"}]}}}, "dtype": {"type": "DT_INT32"}}}, {"name": "PartitionedCall/transpose_472/perm", "op": "Const", "attr": {"value": {"tensor": {"dtype": "DT_INT32", "tensorShape": {"dim": [{"size": "4"}]}}}, "dtype": {"type": "DT_INT32"}}}, {"name": "PartitionedCall/split_226", "op": "Const", "attr": {"value": {"tensor": {"dtype": "DT_FLOAT", "tensorShape": {"dim": [{"size": "3"}, {"size": "3"}, {"size": "64"}, {"size": "1"}]}}}, "dtype": {"type": "DT_FLOAT"}}}, {"name": "unknown_226", "op": "Const", "attr": {"value": {"tensor": {"dtype": "DT_FLOAT", "tensorShape": {"dim": [{"size": "1"}]}}}, "dtype": {"type": "DT_FLOAT"}}}, {"name": "PartitionedCall/onnx_tf_prefix_Constant_989", "op": "Const", "attr": {"value": {"tensor": {"dtype": "DT_FLOAT", "tensorShape": {"dim": [{"size": "2"}]}}}, "dtype": {"type": "DT_FLOAT"}}}, {"name": "PartitionedCall/onnx_tf_prefix_Cast_990", "op": "Const", "attr": {"value": {"tensor": {"dtype": "DT_FLOAT", "tensorShape": {"dim": [{"size": "2"}]}}}, "dtype": {"type": "DT_FLOAT"}}}, {"name": "PartitionedCall/onnx_tf_prefix_Shape_991", "op": "Const", "attr": {"value": {"tensor": {"dtype": "DT_INT64", "tensorShape": {"dim": [{"size": "4"}]}}}, "dtype": {"type": "DT_INT64"}}}, {"name": "PartitionedCall/SelectV2_133", "op": "Const", "attr": {"value": {"tensor": {"dtype": "DT_INT64", "tensorShape": {"dim": [{"size": "1"}]}}}, "dtype": {"type": "DT_INT64"}}}, {"name": "PartitionedCall/zeros_33", "op": "Const", "attr": {"value": {"tensor": {"dtype": "DT_INT64", "tensorShape": {}}}, "dtype": {"type": "DT_INT64"}}}, {"name": "PartitionedCall/Const_409", "op": "Const", "attr": {"value": {"tensor": {"dtype": "DT_INT64", "tensorShape": {}}}, "dtype": {"type": "DT_INT64"}}}, {"name": "PartitionedCall/Shape_33", "op": "Const", "attr": {"value": {"tensor": {"dtype": "DT_INT64", "tensorShape": {"dim": [{"size": "1"}]}}}, "dtype": {"type": "DT_INT64"}}}, {"name": "PartitionedCall/ExpandDims_33", "op": "Const", "attr": {"value": {"tensor": {"dtype": "DT_INT64", "tensorShape": {"dim": [{"size": "1"}, {"size": "1"}]}}}, "dtype": {"type": "DT_INT64"}}}, {"name": "PartitionedCall/Cast_133", "op": "Const", "attr": {"value": {"tensor": {"dtype": "DT_INT64", "tensorShape": {"dim": [{"size": "1"}]}}}, "dtype": {"type": "DT_INT64"}}}, {"name": "PartitionedCall/SelectV2_134", "op": "Const", "attr": {"value": {"tensor": {"dtype": "DT_INT64", "tensorShape": {"dim": [{"size": "1"}]}}}, "dtype": {"type": "DT_INT64"}}}, {"name": "PartitionedCall/Const_408", "op": "Const", "attr": {"value": {"tensor": {"dtype": "DT_INT64", "tensorShape": {}}}, "dtype": {"type": "DT_INT64"}}}, {"name": "PartitionedCall/ones_33", "op": "Const", "attr": {"value": {"tensor": {"dtype": "DT_INT64", "tensorShape": {"dim": [{"size": "1"}]}}}, "dtype": {"type": "DT_INT64"}}}, {"name": "PartitionedCall/onnx_tf_prefix_Concat_998/axis", "op": "Const", "attr": {"value": {"tensor": {"dtype": "DT_INT32", "tensorShape": {}}}, "dtype": {"type": "DT_INT32"}}}, {"name": "PartitionedCall/strided_slice_33/stack", "op": "Const", "attr": {"value": {"tensor": {"dtype": "DT_INT32", "tensorShape": {"dim": [{"size": "1"}]}}}, "dtype": {"type": "DT_INT32"}}}, {"name": "PartitionedCall/strided_slice_33/stack_1", "op": "Const", "attr": {"value": {"tensor": {"dtype": "DT_INT32", "tensorShape": {"dim": [{"size": "1"}]}}}, "dtype": {"type": "DT_INT32"}}}, {"name": "PartitionedCall/strided_slice_33/stack_2", "op": "Const", "attr": {"value": {"tensor": {"dtype": "DT_INT32", "tensorShape": {"dim": [{"size": "1"}]}}}, "dtype": {"type": "DT_INT32"}}}, {"name": "PartitionedCall/Cast_134", "op": "Const", "attr": {"value": {"tensor": {"dtype": "DT_FLOAT", "tensorShape": {"dim": [{"size": "2"}]}}}, "dtype": {"type": "DT_FLOAT"}}}, {"name": "PartitionedCall/transpose_475/perm", "op": "Const", "attr": {"value": {"tensor": {"dtype": "DT_INT32", "tensorShape": {"dim": [{"size": "4"}]}}}, "dtype": {"type": "DT_INT32"}}}, {"name": "PartitionedCall/Const_281", "op": "Const", "attr": {"value": {"tensor": {"dtype": "DT_INT32", "tensorShape": {"dim": [{"size": "4"}, {"size": "2"}]}}}, "dtype": {"type": "DT_INT32"}}}, {"name": "PartitionedCall/transpose_330/perm", "op": "Const", "attr": {"value": {"tensor": {"dtype": "DT_INT32", "tensorShape": {"dim": [{"size": "4"}]}}}, "dtype": {"type": "DT_INT32"}}}, {"name": "PartitionedCall/convolution_81/SpaceToBatchND/block_shape", "op": "Const", "attr": {"value": {"tensor": {"dtype": "DT_INT32", "tensorShape": {"dim": [{"size": "2"}]}}}, "dtype": {"type": "DT_INT32"}}}, {"name": "PartitionedCall/convolution_81/SpaceToBatchND/paddings", "op": "Const", "attr": {"value": {"tensor": {"dtype": "DT_INT32", "tensorShape": {"dim": [{"size": "2"}, {"size": "2"}]}}}, "dtype": {"type": "DT_INT32"}}}, {"name": "PartitionedCall/split_162", "op": "Const", "attr": {"value": {"tensor": {"dtype": "DT_FLOAT", "tensorShape": {"dim": [{"size": "3"}, {"size": "3"}, {"size": "16"}, {"size": "16"}]}}}, "dtype": {"type": "DT_FLOAT"}}}, {"name": "PartitionedCall/convolution_81/BatchToSpaceND/block_shape", "op": "Const", "attr": {"value": {"tensor": {"dtype": "DT_INT32", "tensorShape": {"dim": [{"size": "2"}]}}}, "dtype": {"type": "DT_INT32"}}}, {"name": "PartitionedCall/convolution_81/BatchToSpaceND/crops", "op": "Const", "attr": {"value": {"tensor": {"dtype": "DT_INT32", "tensorShape": {"dim": [{"size": "2"}, {"size": "2"}]}}}, "dtype": {"type": "DT_INT32"}}}, {"name": "unknown_162", "op": "Const", "attr": {"value": {"tensor": {"dtype": "DT_FLOAT", "tensorShape": {"dim": [{"size": "16"}]}}}, "dtype": {"type": "DT_FLOAT"}}}, {"name": "PartitionedCall/transpose_331/perm", "op": "Const", "attr": {"value": {"tensor": {"dtype": "DT_INT32", "tensorShape": {"dim": [{"size": "4"}]}}}, "dtype": {"type": "DT_INT32"}}}, {"name": "PartitionedCall/transpose_324/perm", "op": "Const", "attr": {"value": {"tensor": {"dtype": "DT_INT32", "tensorShape": {"dim": [{"size": "4"}]}}}, "dtype": {"type": "DT_INT32"}}}, {"name": "PartitionedCall/transpose_325/perm", "op": "Const", "attr": {"value": {"tensor": {"dtype": "DT_INT32", "tensorShape": {"dim": [{"size": "4"}]}}}, "dtype": {"type": "DT_INT32"}}}, {"name": "PartitionedCall/Const_278", "op": "Const", "attr": {"value": {"tensor": {"dtype": "DT_INT32", "tensorShape": {"dim": [{"size": "4"}, {"size": "2"}]}}}, "dtype": {"type": "DT_INT32"}}}, {"name": "PartitionedCall/transpose_327/perm", "op": "Const", "attr": {"value": {"tensor": {"dtype": "DT_INT32", "tensorShape": {"dim": [{"size": "4"}]}}}, "dtype": {"type": "DT_INT32"}}}, {"name": "PartitionedCall/split_160", "op": "Const", "attr": {"value": {"tensor": {"dtype": "DT_FLOAT", "tensorShape": {"dim": [{"size": "3"}, {"size": "3"}, {"size": "16"}, {"size": "16"}]}}}, "dtype": {"type": "DT_FLOAT"}}}, {"name": "unknown_160", "op": "Const", "attr": {"value": {"tensor": {"dtype": "DT_FLOAT", "tensorShape": {"dim": [{"size": "16"}]}}}, "dtype": {"type": "DT_FLOAT"}}}, {"name": "PartitionedCall/transpose_328/perm", "op": "Const", "attr": {"value": {"tensor": {"dtype": "DT_INT32", "tensorShape": {"dim": [{"size": "4"}]}}}, "dtype": {"type": "DT_INT32"}}}, {"name": "PartitionedCall/onnx_tf_prefix_Concat_609/axis", "op": "Const", "attr": {"value": {"tensor": {"dtype": "DT_INT32", "tensorShape": {}}}, "dtype": {"type": "DT_INT32"}}}, {"name": "PartitionedCall/Const_284", "op": "Const", "attr": {"value": {"tensor": {"dtype": "DT_INT32", "tensorShape": {"dim": [{"size": "4"}, {"size": "2"}]}}}, "dtype": {"type": "DT_INT32"}}}, {"name": "PartitionedCall/transpose_333/perm", "op": "Const", "attr": {"value": {"tensor": {"dtype": "DT_INT32", "tensorShape": {"dim": [{"size": "4"}]}}}, "dtype": {"type": "DT_INT32"}}}, {"name": "PartitionedCall/split_164", "op": "Const", "attr": {"value": {"tensor": {"dtype": "DT_FLOAT", "tensorShape": {"dim": [{"size": "3"}, {"size": "3"}, {"size": "32"}, {"size": "16"}]}}}, "dtype": {"type": "DT_FLOAT"}}}, {"name": "unknown_164", "op": "Const", "attr": {"value": {"tensor": {"dtype": "DT_FLOAT", "tensorShape": {"dim": [{"size": "16"}]}}}, "dtype": {"type": "DT_FLOAT"}}}, {"name": "PartitionedCall/transpose_334/perm", "op": "Const", "attr": {"value": {"tensor": {"dtype": "DT_INT32", "tensorShape": {"dim": [{"size": "4"}]}}}, "dtype": {"type": "DT_INT32"}}}, {"name": "PartitionedCall/transpose_335/perm", "op": "Const", "attr": {"value": {"tensor": {"dtype": "DT_INT32", "tensorShape": {"dim": [{"size": "4"}]}}}, "dtype": {"type": "DT_INT32"}}}, {"name": "PartitionedCall/onnx_tf_prefix_Constant_621", "op": "Const", "attr": {"value": {"tensor": {"dtype": "DT_FLOAT", "tensorShape": {"dim": [{"size": "2"}]}}}, "dtype": {"type": "DT_FLOAT"}}}, {"name": "PartitionedCall/onnx_tf_prefix_Cast_622", "op": "Const", "attr": {"value": {"tensor": {"dtype": "DT_FLOAT", "tensorShape": {"dim": [{"size": "2"}]}}}, "dtype": {"type": "DT_FLOAT"}}}, {"name": "PartitionedCall/onnx_tf_prefix_Shape_623", "op": "Const", "attr": {"value": {"tensor": {"dtype": "DT_INT64", "tensorShape": {"dim": [{"size": "4"}]}}}, "dtype": {"type": "DT_INT64"}}}, {"name": "PartitionedCall/SelectV2_77", "op": "Const", "attr": {"value": {"tensor": {"dtype": "DT_INT64", "tensorShape": {"dim": [{"size": "1"}]}}}, "dtype": {"type": "DT_INT64"}}}, {"name": "PartitionedCall/zeros_19", "op": "Const", "attr": {"value": {"tensor": {"dtype": "DT_INT64", "tensorShape": {}}}, "dtype": {"type": "DT_INT64"}}}, {"name": "PartitionedCall/Const_288", "op": "Const", "attr": {"value": {"tensor": {"dtype": "DT_INT64", "tensorShape": {}}}, "dtype": {"type": "DT_INT64"}}}, {"name": "PartitionedCall/Shape_19", "op": "Const", "attr": {"value": {"tensor": {"dtype": "DT_INT64", "tensorShape": {"dim": [{"size": "1"}]}}}, "dtype": {"type": "DT_INT64"}}}, {"name": "PartitionedCall/ExpandDims_19", "op": "Const", "attr": {"value": {"tensor": {"dtype": "DT_INT64", "tensorShape": {"dim": [{"size": "1"}, {"size": "1"}]}}}, "dtype": {"type": "DT_INT64"}}}, {"name": "PartitionedCall/Cast_77", "op": "Const", "attr": {"value": {"tensor": {"dtype": "DT_INT64", "tensorShape": {"dim": [{"size": "1"}]}}}, "dtype": {"type": "DT_INT64"}}}, {"name": "PartitionedCall/SelectV2_78", "op": "Const", "attr": {"value": {"tensor": {"dtype": "DT_INT64", "tensorShape": {"dim": [{"size": "1"}]}}}, "dtype": {"type": "DT_INT64"}}}, {"name": "PartitionedCall/Const_287", "op": "Const", "attr": {"value": {"tensor": {"dtype": "DT_INT64", "tensorShape": {}}}, "dtype": {"type": "DT_INT64"}}}, {"name": "PartitionedCall/ones_19", "op": "Const", "attr": {"value": {"tensor": {"dtype": "DT_INT64", "tensorShape": {"dim": [{"size": "1"}]}}}, "dtype": {"type": "DT_INT64"}}}, {"name": "PartitionedCall/onnx_tf_prefix_Concat_630/axis", "op": "Const", "attr": {"value": {"tensor": {"dtype": "DT_INT32", "tensorShape": {}}}, "dtype": {"type": "DT_INT32"}}}, {"name": "PartitionedCall/strided_slice_19/stack", "op": "Const", "attr": {"value": {"tensor": {"dtype": "DT_INT32", "tensorShape": {"dim": [{"size": "1"}]}}}, "dtype": {"type": "DT_INT32"}}}, {"name": "PartitionedCall/strided_slice_19/stack_1", "op": "Const", "attr": {"value": {"tensor": {"dtype": "DT_INT32", "tensorShape": {"dim": [{"size": "1"}]}}}, "dtype": {"type": "DT_INT32"}}}, {"name": "PartitionedCall/strided_slice_19/stack_2", "op": "Const", "attr": {"value": {"tensor": {"dtype": "DT_INT32", "tensorShape": {"dim": [{"size": "1"}]}}}, "dtype": {"type": "DT_INT32"}}}, {"name": "PartitionedCall/Cast_78", "op": "Const", "attr": {"value": {"tensor": {"dtype": "DT_FLOAT", "tensorShape": {"dim": [{"size": "2"}]}}}, "dtype": {"type": "DT_FLOAT"}}}, {"name": "PartitionedCall/transpose_336/perm", "op": "Const", "attr": {"value": {"tensor": {"dtype": "DT_INT32", "tensorShape": {"dim": [{"size": "4"}]}}}, "dtype": {"type": "DT_INT32"}}}, {"name": "PartitionedCall/transpose_319/perm", "op": "Const", "attr": {"value": {"tensor": {"dtype": "DT_INT32", "tensorShape": {"dim": [{"size": "4"}]}}}, "dtype": {"type": "DT_INT32"}}}, {"name": "PartitionedCall/transpose_320/perm", "op": "Const", "attr": {"value": {"tensor": {"dtype": "DT_INT32", "tensorShape": {"dim": [{"size": "4"}]}}}, "dtype": {"type": "DT_INT32"}}}, {"name": "PartitionedCall/Const_275", "op": "Const", "attr": {"value": {"tensor": {"dtype": "DT_INT32", "tensorShape": {"dim": [{"size": "4"}, {"size": "2"}]}}}, "dtype": {"type": "DT_INT32"}}}, {"name": "PartitionedCall/transpose_322/perm", "op": "Const", "attr": {"value": {"tensor": {"dtype": "DT_INT32", "tensorShape": {"dim": [{"size": "4"}]}}}, "dtype": {"type": "DT_INT32"}}}, {"name": "PartitionedCall/split_158", "op": "Const", "attr": {"value": {"tensor": {"dtype": "DT_FLOAT", "tensorShape": {"dim": [{"size": "3"}, {"size": "3"}, {"size": "16"}, {"size": "16"}]}}}, "dtype": {"type": "DT_FLOAT"}}}, {"name": "unknown_158", "op": "Const", "attr": {"value": {"tensor": {"dtype": "DT_FLOAT", "tensorShape": {"dim": [{"size": "16"}]}}}, "dtype": {"type": "DT_FLOAT"}}}, {"name": "PartitionedCall/transpose_323/perm", "op": "Const", "attr": {"value": {"tensor": {"dtype": "DT_INT32", "tensorShape": {"dim": [{"size": "4"}]}}}, "dtype": {"type": "DT_INT32"}}}, {"name": "PartitionedCall/onnx_tf_prefix_Concat_632/axis", "op": "Const", "attr": {"value": {"tensor": {"dtype": "DT_INT32", "tensorShape": {}}}, "dtype": {"type": "DT_INT32"}}}, {"name": "PartitionedCall/Const_289", "op": "Const", "attr": {"value": {"tensor": {"dtype": "DT_INT32", "tensorShape": {"dim": [{"size": "4"}, {"size": "2"}]}}}, "dtype": {"type": "DT_INT32"}}}, {"name": "PartitionedCall/transpose_338/perm", "op": "Const", "attr": {"value": {"tensor": {"dtype": "DT_INT32", "tensorShape": {"dim": [{"size": "4"}]}}}, "dtype": {"type": "DT_INT32"}}}, {"name": "PartitionedCall/split_166", "op": "Const", "attr": {"value": {"tensor": {"dtype": "DT_FLOAT", "tensorShape": {"dim": [{"size": "3"}, {"size": "3"}, {"size": "32"}, {"size": "16"}]}}}, "dtype": {"type": "DT_FLOAT"}}}, {"name": "unknown_166", "op": "Const", "attr": {"value": {"tensor": {"dtype": "DT_FLOAT", "tensorShape": {"dim": [{"size": "16"}]}}}, "dtype": {"type": "DT_FLOAT"}}}, {"name": "PartitionedCall/transpose_339/perm", "op": "Const", "attr": {"value": {"tensor": {"dtype": "DT_INT32", "tensorShape": {"dim": [{"size": "4"}]}}}, "dtype": {"type": "DT_INT32"}}}, {"name": "PartitionedCall/transpose_340/perm", "op": "Const", "attr": {"value": {"tensor": {"dtype": "DT_INT32", "tensorShape": {"dim": [{"size": "4"}]}}}, "dtype": {"type": "DT_INT32"}}}, {"name": "PartitionedCall/onnx_tf_prefix_Constant_644", "op": "Const", "attr": {"value": {"tensor": {"dtype": "DT_FLOAT", "tensorShape": {"dim": [{"size": "2"}]}}}, "dtype": {"type": "DT_FLOAT"}}}, {"name": "PartitionedCall/onnx_tf_prefix_Cast_645", "op": "Const", "attr": {"value": {"tensor": {"dtype": "DT_FLOAT", "tensorShape": {"dim": [{"size": "2"}]}}}, "dtype": {"type": "DT_FLOAT"}}}, {"name": "PartitionedCall/onnx_tf_prefix_Shape_646", "op": "Const", "attr": {"value": {"tensor": {"dtype": "DT_INT64", "tensorShape": {"dim": [{"size": "4"}]}}}, "dtype": {"type": "DT_INT64"}}}, {"name": "PartitionedCall/SelectV2_81", "op": "Const", "attr": {"value": {"tensor": {"dtype": "DT_INT64", "tensorShape": {"dim": [{"size": "1"}]}}}, "dtype": {"type": "DT_INT64"}}}, {"name": "PartitionedCall/zeros_20", "op": "Const", "attr": {"value": {"tensor": {"dtype": "DT_INT64", "tensorShape": {}}}, "dtype": {"type": "DT_INT64"}}}, {"name": "PartitionedCall/Const_293", "op": "Const", "attr": {"value": {"tensor": {"dtype": "DT_INT64", "tensorShape": {}}}, "dtype": {"type": "DT_INT64"}}}, {"name": "PartitionedCall/Shape_20", "op": "Const", "attr": {"value": {"tensor": {"dtype": "DT_INT64", "tensorShape": {"dim": [{"size": "1"}]}}}, "dtype": {"type": "DT_INT64"}}}, {"name": "PartitionedCall/ExpandDims_20", "op": "Const", "attr": {"value": {"tensor": {"dtype": "DT_INT64", "tensorShape": {"dim": [{"size": "1"}, {"size": "1"}]}}}, "dtype": {"type": "DT_INT64"}}}, {"name": "PartitionedCall/Cast_81", "op": "Const", "attr": {"value": {"tensor": {"dtype": "DT_INT64", "tensorShape": {"dim": [{"size": "1"}]}}}, "dtype": {"type": "DT_INT64"}}}, {"name": "PartitionedCall/SelectV2_82", "op": "Const", "attr": {"value": {"tensor": {"dtype": "DT_INT64", "tensorShape": {"dim": [{"size": "1"}]}}}, "dtype": {"type": "DT_INT64"}}}, {"name": "PartitionedCall/Const_292", "op": "Const", "attr": {"value": {"tensor": {"dtype": "DT_INT64", "tensorShape": {}}}, "dtype": {"type": "DT_INT64"}}}, {"name": "PartitionedCall/ones_20", "op": "Const", "attr": {"value": {"tensor": {"dtype": "DT_INT64", "tensorShape": {"dim": [{"size": "1"}]}}}, "dtype": {"type": "DT_INT64"}}}, {"name": "PartitionedCall/onnx_tf_prefix_Concat_653/axis", "op": "Const", "attr": {"value": {"tensor": {"dtype": "DT_INT32", "tensorShape": {}}}, "dtype": {"type": "DT_INT32"}}}, {"name": "PartitionedCall/strided_slice_20/stack", "op": "Const", "attr": {"value": {"tensor": {"dtype": "DT_INT32", "tensorShape": {"dim": [{"size": "1"}]}}}, "dtype": {"type": "DT_INT32"}}}, {"name": "PartitionedCall/strided_slice_20/stack_1", "op": "Const", "attr": {"value": {"tensor": {"dtype": "DT_INT32", "tensorShape": {"dim": [{"size": "1"}]}}}, "dtype": {"type": "DT_INT32"}}}, {"name": "PartitionedCall/strided_slice_20/stack_2", "op": "Const", "attr": {"value": {"tensor": {"dtype": "DT_INT32", "tensorShape": {"dim": [{"size": "1"}]}}}, "dtype": {"type": "DT_INT32"}}}, {"name": "PartitionedCall/Cast_82", "op": "Const", "attr": {"value": {"tensor": {"dtype": "DT_FLOAT", "tensorShape": {"dim": [{"size": "2"}]}}}, "dtype": {"type": "DT_FLOAT"}}}, {"name": "PartitionedCall/transpose_341/perm", "op": "Const", "attr": {"value": {"tensor": {"dtype": "DT_INT32", "tensorShape": {"dim": [{"size": "4"}]}}}, "dtype": {"type": "DT_INT32"}}}, {"name": "PartitionedCall/transpose_314/perm", "op": "Const", "attr": {"value": {"tensor": {"dtype": "DT_INT32", "tensorShape": {"dim": [{"size": "4"}]}}}, "dtype": {"type": "DT_INT32"}}}, {"name": "PartitionedCall/transpose_315/perm", "op": "Const", "attr": {"value": {"tensor": {"dtype": "DT_INT32", "tensorShape": {"dim": [{"size": "4"}]}}}, "dtype": {"type": "DT_INT32"}}}, {"name": "PartitionedCall/Const_272", "op": "Const", "attr": {"value": {"tensor": {"dtype": "DT_INT32", "tensorShape": {"dim": [{"size": "4"}, {"size": "2"}]}}}, "dtype": {"type": "DT_INT32"}}}, {"name": "PartitionedCall/transpose_317/perm", "op": "Const", "attr": {"value": {"tensor": {"dtype": "DT_INT32", "tensorShape": {"dim": [{"size": "4"}]}}}, "dtype": {"type": "DT_INT32"}}}, {"name": "PartitionedCall/split_156", "op": "Const", "attr": {"value": {"tensor": {"dtype": "DT_FLOAT", "tensorShape": {"dim": [{"size": "3"}, {"size": "3"}, {"size": "16"}, {"size": "16"}]}}}, "dtype": {"type": "DT_FLOAT"}}}, {"name": "unknown_156", "op": "Const", "attr": {"value": {"tensor": {"dtype": "DT_FLOAT", "tensorShape": {"dim": [{"size": "16"}]}}}, "dtype": {"type": "DT_FLOAT"}}}, {"name": "PartitionedCall/transpose_318/perm", "op": "Const", "attr": {"value": {"tensor": {"dtype": "DT_INT32", "tensorShape": {"dim": [{"size": "4"}]}}}, "dtype": {"type": "DT_INT32"}}}, {"name": "PartitionedCall/onnx_tf_prefix_Concat_655/axis", "op": "Const", "attr": {"value": {"tensor": {"dtype": "DT_INT32", "tensorShape": {}}}, "dtype": {"type": "DT_INT32"}}}, {"name": "PartitionedCall/Const_294", "op": "Const", "attr": {"value": {"tensor": {"dtype": "DT_INT32", "tensorShape": {"dim": [{"size": "4"}, {"size": "2"}]}}}, "dtype": {"type": "DT_INT32"}}}, {"name": "PartitionedCall/transpose_343/perm", "op": "Const", "attr": {"value": {"tensor": {"dtype": "DT_INT32", "tensorShape": {"dim": [{"size": "4"}]}}}, "dtype": {"type": "DT_INT32"}}}, {"name": "PartitionedCall/split_168", "op": "Const", "attr": {"value": {"tensor": {"dtype": "DT_FLOAT", "tensorShape": {"dim": [{"size": "3"}, {"size": "3"}, {"size": "32"}, {"size": "16"}]}}}, "dtype": {"type": "DT_FLOAT"}}}, {"name": "unknown_168", "op": "Const", "attr": {"value": {"tensor": {"dtype": "DT_FLOAT", "tensorShape": {"dim": [{"size": "16"}]}}}, "dtype": {"type": "DT_FLOAT"}}}, {"name": "PartitionedCall/transpose_344/perm", "op": "Const", "attr": {"value": {"tensor": {"dtype": "DT_INT32", "tensorShape": {"dim": [{"size": "4"}]}}}, "dtype": {"type": "DT_INT32"}}}, {"name": "PartitionedCall/transpose_345/perm", "op": "Const", "attr": {"value": {"tensor": {"dtype": "DT_INT32", "tensorShape": {"dim": [{"size": "4"}]}}}, "dtype": {"type": "DT_INT32"}}}, {"name": "PartitionedCall/onnx_tf_prefix_Constant_667", "op": "Const", "attr": {"value": {"tensor": {"dtype": "DT_FLOAT", "tensorShape": {"dim": [{"size": "2"}]}}}, "dtype": {"type": "DT_FLOAT"}}}, {"name": "PartitionedCall/onnx_tf_prefix_Cast_668", "op": "Const", "attr": {"value": {"tensor": {"dtype": "DT_FLOAT", "tensorShape": {"dim": [{"size": "2"}]}}}, "dtype": {"type": "DT_FLOAT"}}}, {"name": "PartitionedCall/onnx_tf_prefix_Shape_669", "op": "Const", "attr": {"value": {"tensor": {"dtype": "DT_INT64", "tensorShape": {"dim": [{"size": "4"}]}}}, "dtype": {"type": "DT_INT64"}}}, {"name": "PartitionedCall/SelectV2_85", "op": "Const", "attr": {"value": {"tensor": {"dtype": "DT_INT64", "tensorShape": {"dim": [{"size": "1"}]}}}, "dtype": {"type": "DT_INT64"}}}, {"name": "PartitionedCall/zeros_21", "op": "Const", "attr": {"value": {"tensor": {"dtype": "DT_INT64", "tensorShape": {}}}, "dtype": {"type": "DT_INT64"}}}, {"name": "PartitionedCall/Const_298", "op": "Const", "attr": {"value": {"tensor": {"dtype": "DT_INT64", "tensorShape": {}}}, "dtype": {"type": "DT_INT64"}}}, {"name": "PartitionedCall/Shape_21", "op": "Const", "attr": {"value": {"tensor": {"dtype": "DT_INT64", "tensorShape": {"dim": [{"size": "1"}]}}}, "dtype": {"type": "DT_INT64"}}}, {"name": "PartitionedCall/ExpandDims_21", "op": "Const", "attr": {"value": {"tensor": {"dtype": "DT_INT64", "tensorShape": {"dim": [{"size": "1"}, {"size": "1"}]}}}, "dtype": {"type": "DT_INT64"}}}, {"name": "PartitionedCall/Cast_85", "op": "Const", "attr": {"value": {"tensor": {"dtype": "DT_INT64", "tensorShape": {"dim": [{"size": "1"}]}}}, "dtype": {"type": "DT_INT64"}}}, {"name": "PartitionedCall/SelectV2_86", "op": "Const", "attr": {"value": {"tensor": {"dtype": "DT_INT64", "tensorShape": {"dim": [{"size": "1"}]}}}, "dtype": {"type": "DT_INT64"}}}, {"name": "PartitionedCall/Const_297", "op": "Const", "attr": {"value": {"tensor": {"dtype": "DT_INT64", "tensorShape": {}}}, "dtype": {"type": "DT_INT64"}}}, {"name": "PartitionedCall/ones_21", "op": "Const", "attr": {"value": {"tensor": {"dtype": "DT_INT64", "tensorShape": {"dim": [{"size": "1"}]}}}, "dtype": {"type": "DT_INT64"}}}, {"name": "PartitionedCall/onnx_tf_prefix_Concat_676/axis", "op": "Const", "attr": {"value": {"tensor": {"dtype": "DT_INT32", "tensorShape": {}}}, "dtype": {"type": "DT_INT32"}}}, {"name": "PartitionedCall/strided_slice_21/stack", "op": "Const", "attr": {"value": {"tensor": {"dtype": "DT_INT32", "tensorShape": {"dim": [{"size": "1"}]}}}, "dtype": {"type": "DT_INT32"}}}, {"name": "PartitionedCall/strided_slice_21/stack_1", "op": "Const", "attr": {"value": {"tensor": {"dtype": "DT_INT32", "tensorShape": {"dim": [{"size": "1"}]}}}, "dtype": {"type": "DT_INT32"}}}, {"name": "PartitionedCall/strided_slice_21/stack_2", "op": "Const", "attr": {"value": {"tensor": {"dtype": "DT_INT32", "tensorShape": {"dim": [{"size": "1"}]}}}, "dtype": {"type": "DT_INT32"}}}, {"name": "PartitionedCall/Cast_86", "op": "Const", "attr": {"value": {"tensor": {"dtype": "DT_FLOAT", "tensorShape": {"dim": [{"size": "2"}]}}}, "dtype": {"type": "DT_FLOAT"}}}, {"name": "PartitionedCall/transpose_346/perm", "op": "Const", "attr": {"value": {"tensor": {"dtype": "DT_INT32", "tensorShape": {"dim": [{"size": "4"}]}}}, "dtype": {"type": "DT_INT32"}}}, {"name": "PartitionedCall/Const_269", "op": "Const", "attr": {"value": {"tensor": {"dtype": "DT_INT32", "tensorShape": {"dim": [{"size": "4"}, {"size": "2"}]}}}, "dtype": {"type": "DT_INT32"}}}, {"name": "PartitionedCall/transpose_312/perm", "op": "Const", "attr": {"value": {"tensor": {"dtype": "DT_INT32", "tensorShape": {"dim": [{"size": "4"}]}}}, "dtype": {"type": "DT_INT32"}}}, {"name": "PartitionedCall/split_154", "op": "Const", "attr": {"value": {"tensor": {"dtype": "DT_FLOAT", "tensorShape": {"dim": [{"size": "3"}, {"size": "3"}, {"size": "64"}, {"size": "16"}]}}}, "dtype": {"type": "DT_FLOAT"}}}, {"name": "unknown_154", "op": "Const", "attr": {"value": {"tensor": {"dtype": "DT_FLOAT", "tensorShape": {"dim": [{"size": "16"}]}}}, "dtype": {"type": "DT_FLOAT"}}}, {"name": "PartitionedCall/transpose_313/perm", "op": "Const", "attr": {"value": {"tensor": {"dtype": "DT_INT32", "tensorShape": {"dim": [{"size": "4"}]}}}, "dtype": {"type": "DT_INT32"}}}, {"name": "PartitionedCall/onnx_tf_prefix_Concat_678/axis", "op": "Const", "attr": {"value": {"tensor": {"dtype": "DT_INT32", "tensorShape": {}}}, "dtype": {"type": "DT_INT32"}}}, {"name": "PartitionedCall/Const_299", "op": "Const", "attr": {"value": {"tensor": {"dtype": "DT_INT32", "tensorShape": {"dim": [{"size": "4"}, {"size": "2"}]}}}, "dtype": {"type": "DT_INT32"}}}, {"name": "PartitionedCall/transpose_348/perm", "op": "Const", "attr": {"value": {"tensor": {"dtype": "DT_INT32", "tensorShape": {"dim": [{"size": "4"}]}}}, "dtype": {"type": "DT_INT32"}}}, {"name": "PartitionedCall/split_170", "op": "Const", "attr": {"value": {"tensor": {"dtype": "DT_FLOAT", "tensorShape": {"dim": [{"size": "3"}, {"size": "3"}, {"size": "32"}, {"size": "64"}]}}}, "dtype": {"type": "DT_FLOAT"}}}, {"name": "unknown_170", "op": "Const", "attr": {"value": {"tensor": {"dtype": "DT_FLOAT", "tensorShape": {"dim": [{"size": "64"}]}}}, "dtype": {"type": "DT_FLOAT"}}}, {"name": "PartitionedCall/transpose_349/perm", "op": "Const", "attr": {"value": {"tensor": {"dtype": "DT_INT32", "tensorShape": {"dim": [{"size": "4"}]}}}, "dtype": {"type": "DT_INT32"}}}, {"name": "PartitionedCall/transpose_306/perm", "op": "Const", "attr": {"value": {"tensor": {"dtype": "DT_INT32", "tensorShape": {"dim": [{"size": "4"}]}}}, "dtype": {"type": "DT_INT32"}}}, {"name": "PartitionedCall/onnx_tf_prefix_Constant_582", "op": "Const", "attr": {"value": {"tensor": {"dtype": "DT_FLOAT", "tensorShape": {"dim": [{"size": "2"}]}}}, "dtype": {"type": "DT_FLOAT"}}}, {"name": "PartitionedCall/onnx_tf_prefix_Cast_583", "op": "Const", "attr": {"value": {"tensor": {"dtype": "DT_FLOAT", "tensorShape": {"dim": [{"size": "2"}]}}}, "dtype": {"type": "DT_FLOAT"}}}, {"name": "PartitionedCall/onnx_tf_prefix_Shape_584", "op": "Const", "attr": {"value": {"tensor": {"dtype": "DT_INT64", "tensorShape": {"dim": [{"size": "4"}]}}}, "dtype": {"type": "DT_INT64"}}}, {"name": "PartitionedCall/SelectV2_73", "op": "Const", "attr": {"value": {"tensor": {"dtype": "DT_INT64", "tensorShape": {"dim": [{"size": "1"}]}}}, "dtype": {"type": "DT_INT64"}}}, {"name": "PartitionedCall/zeros_18", "op": "Const", "attr": {"value": {"tensor": {"dtype": "DT_INT64", "tensorShape": {}}}, "dtype": {"type": "DT_INT64"}}}, {"name": "PartitionedCall/Const_265", "op": "Const", "attr": {"value": {"tensor": {"dtype": "DT_INT64", "tensorShape": {}}}, "dtype": {"type": "DT_INT64"}}}, {"name": "PartitionedCall/Shape_18", "op": "Const", "attr": {"value": {"tensor": {"dtype": "DT_INT64", "tensorShape": {"dim": [{"size": "1"}]}}}, "dtype": {"type": "DT_INT64"}}}, {"name": "PartitionedCall/ExpandDims_18", "op": "Const", "attr": {"value": {"tensor": {"dtype": "DT_INT64", "tensorShape": {"dim": [{"size": "1"}, {"size": "1"}]}}}, "dtype": {"type": "DT_INT64"}}}, {"name": "PartitionedCall/Cast_73", "op": "Const", "attr": {"value": {"tensor": {"dtype": "DT_INT64", "tensorShape": {"dim": [{"size": "1"}]}}}, "dtype": {"type": "DT_INT64"}}}, {"name": "PartitionedCall/SelectV2_74", "op": "Const", "attr": {"value": {"tensor": {"dtype": "DT_INT64", "tensorShape": {"dim": [{"size": "1"}]}}}, "dtype": {"type": "DT_INT64"}}}, {"name": "PartitionedCall/Const_264", "op": "Const", "attr": {"value": {"tensor": {"dtype": "DT_INT64", "tensorShape": {}}}, "dtype": {"type": "DT_INT64"}}}, {"name": "PartitionedCall/ones_18", "op": "Const", "attr": {"value": {"tensor": {"dtype": "DT_INT64", "tensorShape": {"dim": [{"size": "1"}]}}}, "dtype": {"type": "DT_INT64"}}}, {"name": "PartitionedCall/onnx_tf_prefix_Concat_591/axis", "op": "Const", "attr": {"value": {"tensor": {"dtype": "DT_INT32", "tensorShape": {}}}, "dtype": {"type": "DT_INT32"}}}, {"name": "PartitionedCall/strided_slice_18/stack", "op": "Const", "attr": {"value": {"tensor": {"dtype": "DT_INT32", "tensorShape": {"dim": [{"size": "1"}]}}}, "dtype": {"type": "DT_INT32"}}}, {"name": "PartitionedCall/strided_slice_18/stack_1", "op": "Const", "attr": {"value": {"tensor": {"dtype": "DT_INT32", "tensorShape": {"dim": [{"size": "1"}]}}}, "dtype": {"type": "DT_INT32"}}}, {"name": "PartitionedCall/strided_slice_18/stack_2", "op": "Const", "attr": {"value": {"tensor": {"dtype": "DT_INT32", "tensorShape": {"dim": [{"size": "1"}]}}}, "dtype": {"type": "DT_INT32"}}}, {"name": "PartitionedCall/Cast_74", "op": "Const", "attr": {"value": {"tensor": {"dtype": "DT_FLOAT", "tensorShape": {"dim": [{"size": "2"}]}}}, "dtype": {"type": "DT_FLOAT"}}}, {"name": "PartitionedCall/transpose_307/perm", "op": "Const", "attr": {"value": {"tensor": {"dtype": "DT_INT32", "tensorShape": {"dim": [{"size": "4"}]}}}, "dtype": {"type": "DT_INT32"}}}, {"name": "PartitionedCall/onnx_tf_prefix_Concat_593/axis", "op": "Const", "attr": {"value": {"tensor": {"dtype": "DT_INT32", "tensorShape": {}}}, "dtype": {"type": "DT_INT32"}}}, {"name": "PartitionedCall/Const_266", "op": "Const", "attr": {"value": {"tensor": {"dtype": "DT_INT32", "tensorShape": {"dim": [{"size": "4"}, {"size": "2"}]}}}, "dtype": {"type": "DT_INT32"}}}, {"name": "PartitionedCall/transpose_309/perm", "op": "Const", "attr": {"value": {"tensor": {"dtype": "DT_INT32", "tensorShape": {"dim": [{"size": "4"}]}}}, "dtype": {"type": "DT_INT32"}}}, {"name": "PartitionedCall/split_152", "op": "Const", "attr": {"value": {"tensor": {"dtype": "DT_FLOAT", "tensorShape": {"dim": [{"size": "3"}, {"size": "3"}, {"size": "128"}, {"size": "64"}]}}}, "dtype": {"type": "DT_FLOAT"}}}, {"name": "unknown_152", "op": "Const", "attr": {"value": {"tensor": {"dtype": "DT_FLOAT", "tensorShape": {"dim": [{"size": "64"}]}}}, "dtype": {"type": "DT_FLOAT"}}}, {"name": "PartitionedCall/transpose_310/perm", "op": "Const", "attr": {"value": {"tensor": {"dtype": "DT_INT32", "tensorShape": {"dim": [{"size": "4"}]}}}, "dtype": {"type": "DT_INT32"}}}, {"name": "PartitionedCall/Const_410", "op": "Const", "attr": {"value": {"tensor": {"dtype": "DT_INT32", "tensorShape": {"dim": [{"size": "4"}, {"size": "2"}]}}}, "dtype": {"type": "DT_INT32"}}}, {"name": "PartitionedCall/transpose_477/perm", "op": "Const", "attr": {"value": {"tensor": {"dtype": "DT_INT32", "tensorShape": {"dim": [{"size": "4"}]}}}, "dtype": {"type": "DT_INT32"}}}, {"name": "PartitionedCall/split_228", "op": "Const", "attr": {"value": {"tensor": {"dtype": "DT_FLOAT", "tensorShape": {"dim": [{"size": "3"}, {"size": "3"}, {"size": "64"}, {"size": "1"}]}}}, "dtype": {"type": "DT_FLOAT"}}}, {"name": "unknown_228", "op": "Const", "attr": {"value": {"tensor": {"dtype": "DT_FLOAT", "tensorShape": {"dim": [{"size": "1"}]}}}, "dtype": {"type": "DT_FLOAT"}}}, {"name": "PartitionedCall/onnx_tf_prefix_Constant_1010", "op": "Const", "attr": {"value": {"tensor": {"dtype": "DT_FLOAT", "tensorShape": {"dim": [{"size": "2"}]}}}, "dtype": {"type": "DT_FLOAT"}}}, {"name": "PartitionedCall/onnx_tf_prefix_Cast_1011", "op": "Const", "attr": {"value": {"tensor": {"dtype": "DT_FLOAT", "tensorShape": {"dim": [{"size": "2"}]}}}, "dtype": {"type": "DT_FLOAT"}}}, {"name": "PartitionedCall/onnx_tf_prefix_Shape_1012", "op": "Const", "attr": {"value": {"tensor": {"dtype": "DT_INT64", "tensorShape": {"dim": [{"size": "4"}]}}}, "dtype": {"type": "DT_INT64"}}}, {"name": "PartitionedCall/SelectV2_137", "op": "Const", "attr": {"value": {"tensor": {"dtype": "DT_INT64", "tensorShape": {"dim": [{"size": "1"}]}}}, "dtype": {"type": "DT_INT64"}}}, {"name": "PartitionedCall/zeros_34", "op": "Const", "attr": {"value": {"tensor": {"dtype": "DT_INT64", "tensorShape": {}}}, "dtype": {"type": "DT_INT64"}}}, {"name": "PartitionedCall/Const_414", "op": "Const", "attr": {"value": {"tensor": {"dtype": "DT_INT64", "tensorShape": {}}}, "dtype": {"type": "DT_INT64"}}}, {"name": "PartitionedCall/Shape_34", "op": "Const", "attr": {"value": {"tensor": {"dtype": "DT_INT64", "tensorShape": {"dim": [{"size": "1"}]}}}, "dtype": {"type": "DT_INT64"}}}, {"name": "PartitionedCall/ExpandDims_34", "op": "Const", "attr": {"value": {"tensor": {"dtype": "DT_INT64", "tensorShape": {"dim": [{"size": "1"}, {"size": "1"}]}}}, "dtype": {"type": "DT_INT64"}}}, {"name": "PartitionedCall/Cast_137", "op": "Const", "attr": {"value": {"tensor": {"dtype": "DT_INT64", "tensorShape": {"dim": [{"size": "1"}]}}}, "dtype": {"type": "DT_INT64"}}}, {"name": "PartitionedCall/SelectV2_138", "op": "Const", "attr": {"value": {"tensor": {"dtype": "DT_INT64", "tensorShape": {"dim": [{"size": "1"}]}}}, "dtype": {"type": "DT_INT64"}}}, {"name": "PartitionedCall/Const_413", "op": "Const", "attr": {"value": {"tensor": {"dtype": "DT_INT64", "tensorShape": {}}}, "dtype": {"type": "DT_INT64"}}}, {"name": "PartitionedCall/ones_34", "op": "Const", "attr": {"value": {"tensor": {"dtype": "DT_INT64", "tensorShape": {"dim": [{"size": "1"}]}}}, "dtype": {"type": "DT_INT64"}}}, {"name": "PartitionedCall/onnx_tf_prefix_Concat_1019/axis", "op": "Const", "attr": {"value": {"tensor": {"dtype": "DT_INT32", "tensorShape": {}}}, "dtype": {"type": "DT_INT32"}}}, {"name": "PartitionedCall/strided_slice_34/stack", "op": "Const", "attr": {"value": {"tensor": {"dtype": "DT_INT32", "tensorShape": {"dim": [{"size": "1"}]}}}, "dtype": {"type": "DT_INT32"}}}, {"name": "PartitionedCall/strided_slice_34/stack_1", "op": "Const", "attr": {"value": {"tensor": {"dtype": "DT_INT32", "tensorShape": {"dim": [{"size": "1"}]}}}, "dtype": {"type": "DT_INT32"}}}, {"name": "PartitionedCall/strided_slice_34/stack_2", "op": "Const", "attr": {"value": {"tensor": {"dtype": "DT_INT32", "tensorShape": {"dim": [{"size": "1"}]}}}, "dtype": {"type": "DT_INT32"}}}, {"name": "PartitionedCall/Cast_138", "op": "Const", "attr": {"value": {"tensor": {"dtype": "DT_FLOAT", "tensorShape": {"dim": [{"size": "2"}]}}}, "dtype": {"type": "DT_FLOAT"}}}, {"name": "PartitionedCall/transpose_480/perm", "op": "Const", "attr": {"value": {"tensor": {"dtype": "DT_INT32", "tensorShape": {"dim": [{"size": "4"}]}}}, "dtype": {"type": "DT_INT32"}}}, {"name": "PartitionedCall/Const_248", "op": "Const", "attr": {"value": {"tensor": {"dtype": "DT_INT32", "tensorShape": {"dim": [{"size": "4"}, {"size": "2"}]}}}, "dtype": {"type": "DT_INT32"}}}, {"name": "PartitionedCall/transpose_291/perm", "op": "Const", "attr": {"value": {"tensor": {"dtype": "DT_INT32", "tensorShape": {"dim": [{"size": "4"}]}}}, "dtype": {"type": "DT_INT32"}}}, {"name": "PartitionedCall/convolution_72/SpaceToBatchND/block_shape", "op": "Const", "attr": {"value": {"tensor": {"dtype": "DT_INT32", "tensorShape": {"dim": [{"size": "2"}]}}}, "dtype": {"type": "DT_INT32"}}}, {"name": "PartitionedCall/convolution_72/SpaceToBatchND/paddings", "op": "Const", "attr": {"value": {"tensor": {"dtype": "DT_INT32", "tensorShape": {"dim": [{"size": "2"}, {"size": "2"}]}}}, "dtype": {"type": "DT_INT32"}}}, {"name": "PartitionedCall/split_144", "op": "Const", "attr": {"value": {"tensor": {"dtype": "DT_FLOAT", "tensorShape": {"dim": [{"size": "3"}, {"size": "3"}, {"size": "16"}, {"size": "16"}]}}}, "dtype": {"type": "DT_FLOAT"}}}, {"name": "PartitionedCall/convolution_72/BatchToSpaceND/block_shape", "op": "Const", "attr": {"value": {"tensor": {"dtype": "DT_INT32", "tensorShape": {"dim": [{"size": "2"}]}}}, "dtype": {"type": "DT_INT32"}}}, {"name": "PartitionedCall/convolution_72/BatchToSpaceND/crops", "op": "Const", "attr": {"value": {"tensor": {"dtype": "DT_INT32", "tensorShape": {"dim": [{"size": "2"}, {"size": "2"}]}}}, "dtype": {"type": "DT_INT32"}}}, {"name": "unknown_144", "op": "Const", "attr": {"value": {"tensor": {"dtype": "DT_FLOAT", "tensorShape": {"dim": [{"size": "16"}]}}}, "dtype": {"type": "DT_FLOAT"}}}, {"name": "PartitionedCall/transpose_292/perm", "op": "Const", "attr": {"value": {"tensor": {"dtype": "DT_INT32", "tensorShape": {"dim": [{"size": "4"}]}}}, "dtype": {"type": "DT_INT32"}}}, {"name": "PartitionedCall/transpose_285/perm", "op": "Const", "attr": {"value": {"tensor": {"dtype": "DT_INT32", "tensorShape": {"dim": [{"size": "4"}]}}}, "dtype": {"type": "DT_INT32"}}}, {"name": "PartitionedCall/transpose_286/perm", "op": "Const", "attr": {"value": {"tensor": {"dtype": "DT_INT32", "tensorShape": {"dim": [{"size": "4"}]}}}, "dtype": {"type": "DT_INT32"}}}, {"name": "PartitionedCall/Const_245", "op": "Const", "attr": {"value": {"tensor": {"dtype": "DT_INT32", "tensorShape": {"dim": [{"size": "4"}, {"size": "2"}]}}}, "dtype": {"type": "DT_INT32"}}}, {"name": "PartitionedCall/transpose_288/perm", "op": "Const", "attr": {"value": {"tensor": {"dtype": "DT_INT32", "tensorShape": {"dim": [{"size": "4"}]}}}, "dtype": {"type": "DT_INT32"}}}, {"name": "PartitionedCall/split_142", "op": "Const", "attr": {"value": {"tensor": {"dtype": "DT_FLOAT", "tensorShape": {"dim": [{"size": "3"}, {"size": "3"}, {"size": "16"}, {"size": "16"}]}}}, "dtype": {"type": "DT_FLOAT"}}}, {"name": "unknown_142", "op": "Const", "attr": {"value": {"tensor": {"dtype": "DT_FLOAT", "tensorShape": {"dim": [{"size": "16"}]}}}, "dtype": {"type": "DT_FLOAT"}}}, {"name": "PartitionedCall/transpose_289/perm", "op": "Const", "attr": {"value": {"tensor": {"dtype": "DT_INT32", "tensorShape": {"dim": [{"size": "4"}]}}}, "dtype": {"type": "DT_INT32"}}}, {"name": "PartitionedCall/onnx_tf_prefix_Concat_523/axis", "op": "Const", "attr": {"value": {"tensor": {"dtype": "DT_INT32", "tensorShape": {}}}, "dtype": {"type": "DT_INT32"}}}, {"name": "PartitionedCall/Const_251", "op": "Const", "attr": {"value": {"tensor": {"dtype": "DT_INT32", "tensorShape": {"dim": [{"size": "4"}, {"size": "2"}]}}}, "dtype": {"type": "DT_INT32"}}}, {"name": "PartitionedCall/transpose_294/perm", "op": "Const", "attr": {"value": {"tensor": {"dtype": "DT_INT32", "tensorShape": {"dim": [{"size": "4"}]}}}, "dtype": {"type": "DT_INT32"}}}, {"name": "PartitionedCall/split_146", "op": "Const", "attr": {"value": {"tensor": {"dtype": "DT_FLOAT", "tensorShape": {"dim": [{"size": "3"}, {"size": "3"}, {"size": "32"}, {"size": "16"}]}}}, "dtype": {"type": "DT_FLOAT"}}}, {"name": "unknown_146", "op": "Const", "attr": {"value": {"tensor": {"dtype": "DT_FLOAT", "tensorShape": {"dim": [{"size": "16"}]}}}, "dtype": {"type": "DT_FLOAT"}}}, {"name": "PartitionedCall/transpose_295/perm", "op": "Const", "attr": {"value": {"tensor": {"dtype": "DT_INT32", "tensorShape": {"dim": [{"size": "4"}]}}}, "dtype": {"type": "DT_INT32"}}}, {"name": "PartitionedCall/transpose_296/perm", "op": "Const", "attr": {"value": {"tensor": {"dtype": "DT_INT32", "tensorShape": {"dim": [{"size": "4"}]}}}, "dtype": {"type": "DT_INT32"}}}, {"name": "PartitionedCall/onnx_tf_prefix_Constant_535", "op": "Const", "attr": {"value": {"tensor": {"dtype": "DT_FLOAT", "tensorShape": {"dim": [{"size": "2"}]}}}, "dtype": {"type": "DT_FLOAT"}}}, {"name": "PartitionedCall/onnx_tf_prefix_Cast_536", "op": "Const", "attr": {"value": {"tensor": {"dtype": "DT_FLOAT", "tensorShape": {"dim": [{"size": "2"}]}}}, "dtype": {"type": "DT_FLOAT"}}}, {"name": "PartitionedCall/onnx_tf_prefix_Shape_537", "op": "Const", "attr": {"value": {"tensor": {"dtype": "DT_INT64", "tensorShape": {"dim": [{"size": "4"}]}}}, "dtype": {"type": "DT_INT64"}}}, {"name": "PartitionedCall/SelectV2_65", "op": "Const", "attr": {"value": {"tensor": {"dtype": "DT_INT64", "tensorShape": {"dim": [{"size": "1"}]}}}, "dtype": {"type": "DT_INT64"}}}, {"name": "PartitionedCall/zeros_16", "op": "Const", "attr": {"value": {"tensor": {"dtype": "DT_INT64", "tensorShape": {}}}, "dtype": {"type": "DT_INT64"}}}, {"name": "PartitionedCall/Const_255", "op": "Const", "attr": {"value": {"tensor": {"dtype": "DT_INT64", "tensorShape": {}}}, "dtype": {"type": "DT_INT64"}}}, {"name": "PartitionedCall/Shape_16", "op": "Const", "attr": {"value": {"tensor": {"dtype": "DT_INT64", "tensorShape": {"dim": [{"size": "1"}]}}}, "dtype": {"type": "DT_INT64"}}}, {"name": "PartitionedCall/ExpandDims_16", "op": "Const", "attr": {"value": {"tensor": {"dtype": "DT_INT64", "tensorShape": {"dim": [{"size": "1"}, {"size": "1"}]}}}, "dtype": {"type": "DT_INT64"}}}, {"name": "PartitionedCall/Cast_65", "op": "Const", "attr": {"value": {"tensor": {"dtype": "DT_INT64", "tensorShape": {"dim": [{"size": "1"}]}}}, "dtype": {"type": "DT_INT64"}}}, {"name": "PartitionedCall/SelectV2_66", "op": "Const", "attr": {"value": {"tensor": {"dtype": "DT_INT64", "tensorShape": {"dim": [{"size": "1"}]}}}, "dtype": {"type": "DT_INT64"}}}, {"name": "PartitionedCall/Const_254", "op": "Const", "attr": {"value": {"tensor": {"dtype": "DT_INT64", "tensorShape": {}}}, "dtype": {"type": "DT_INT64"}}}, {"name": "PartitionedCall/ones_16", "op": "Const", "attr": {"value": {"tensor": {"dtype": "DT_INT64", "tensorShape": {"dim": [{"size": "1"}]}}}, "dtype": {"type": "DT_INT64"}}}, {"name": "PartitionedCall/onnx_tf_prefix_Concat_544/axis", "op": "Const", "attr": {"value": {"tensor": {"dtype": "DT_INT32", "tensorShape": {}}}, "dtype": {"type": "DT_INT32"}}}, {"name": "PartitionedCall/strided_slice_16/stack", "op": "Const", "attr": {"value": {"tensor": {"dtype": "DT_INT32", "tensorShape": {"dim": [{"size": "1"}]}}}, "dtype": {"type": "DT_INT32"}}}, {"name": "PartitionedCall/strided_slice_16/stack_1", "op": "Const", "attr": {"value": {"tensor": {"dtype": "DT_INT32", "tensorShape": {"dim": [{"size": "1"}]}}}, "dtype": {"type": "DT_INT32"}}}, {"name": "PartitionedCall/strided_slice_16/stack_2", "op": "Const", "attr": {"value": {"tensor": {"dtype": "DT_INT32", "tensorShape": {"dim": [{"size": "1"}]}}}, "dtype": {"type": "DT_INT32"}}}, {"name": "PartitionedCall/Cast_66", "op": "Const", "attr": {"value": {"tensor": {"dtype": "DT_FLOAT", "tensorShape": {"dim": [{"size": "2"}]}}}, "dtype": {"type": "DT_FLOAT"}}}, {"name": "PartitionedCall/transpose_297/perm", "op": "Const", "attr": {"value": {"tensor": {"dtype": "DT_INT32", "tensorShape": {"dim": [{"size": "4"}]}}}, "dtype": {"type": "DT_INT32"}}}, {"name": "PartitionedCall/transpose_280/perm", "op": "Const", "attr": {"value": {"tensor": {"dtype": "DT_INT32", "tensorShape": {"dim": [{"size": "4"}]}}}, "dtype": {"type": "DT_INT32"}}}, {"name": "PartitionedCall/transpose_281/perm", "op": "Const", "attr": {"value": {"tensor": {"dtype": "DT_INT32", "tensorShape": {"dim": [{"size": "4"}]}}}, "dtype": {"type": "DT_INT32"}}}, {"name": "PartitionedCall/Const_242", "op": "Const", "attr": {"value": {"tensor": {"dtype": "DT_INT32", "tensorShape": {"dim": [{"size": "4"}, {"size": "2"}]}}}, "dtype": {"type": "DT_INT32"}}}, {"name": "PartitionedCall/transpose_283/perm", "op": "Const", "attr": {"value": {"tensor": {"dtype": "DT_INT32", "tensorShape": {"dim": [{"size": "4"}]}}}, "dtype": {"type": "DT_INT32"}}}, {"name": "PartitionedCall/split_140", "op": "Const", "attr": {"value": {"tensor": {"dtype": "DT_FLOAT", "tensorShape": {"dim": [{"size": "3"}, {"size": "3"}, {"size": "16"}, {"size": "16"}]}}}, "dtype": {"type": "DT_FLOAT"}}}, {"name": "unknown_140", "op": "Const", "attr": {"value": {"tensor": {"dtype": "DT_FLOAT", "tensorShape": {"dim": [{"size": "16"}]}}}, "dtype": {"type": "DT_FLOAT"}}}, {"name": "PartitionedCall/transpose_284/perm", "op": "Const", "attr": {"value": {"tensor": {"dtype": "DT_INT32", "tensorShape": {"dim": [{"size": "4"}]}}}, "dtype": {"type": "DT_INT32"}}}, {"name": "PartitionedCall/onnx_tf_prefix_Concat_546/axis", "op": "Const", "attr": {"value": {"tensor": {"dtype": "DT_INT32", "tensorShape": {}}}, "dtype": {"type": "DT_INT32"}}}, {"name": "PartitionedCall/Const_256", "op": "Const", "attr": {"value": {"tensor": {"dtype": "DT_INT32", "tensorShape": {"dim": [{"size": "4"}, {"size": "2"}]}}}, "dtype": {"type": "DT_INT32"}}}, {"name": "PartitionedCall/transpose_299/perm", "op": "Const", "attr": {"value": {"tensor": {"dtype": "DT_INT32", "tensorShape": {"dim": [{"size": "4"}]}}}, "dtype": {"type": "DT_INT32"}}}, {"name": "PartitionedCall/split_148", "op": "Const", "attr": {"value": {"tensor": {"dtype": "DT_FLOAT", "tensorShape": {"dim": [{"size": "3"}, {"size": "3"}, {"size": "32"}, {"size": "16"}]}}}, "dtype": {"type": "DT_FLOAT"}}}, {"name": "unknown_148", "op": "Const", "attr": {"value": {"tensor": {"dtype": "DT_FLOAT", "tensorShape": {"dim": [{"size": "16"}]}}}, "dtype": {"type": "DT_FLOAT"}}}, {"name": "PartitionedCall/transpose_300/perm", "op": "Const", "attr": {"value": {"tensor": {"dtype": "DT_INT32", "tensorShape": {"dim": [{"size": "4"}]}}}, "dtype": {"type": "DT_INT32"}}}, {"name": "PartitionedCall/transpose_301/perm", "op": "Const", "attr": {"value": {"tensor": {"dtype": "DT_INT32", "tensorShape": {"dim": [{"size": "4"}]}}}, "dtype": {"type": "DT_INT32"}}}, {"name": "PartitionedCall/onnx_tf_prefix_Constant_558", "op": "Const", "attr": {"value": {"tensor": {"dtype": "DT_FLOAT", "tensorShape": {"dim": [{"size": "2"}]}}}, "dtype": {"type": "DT_FLOAT"}}}, {"name": "PartitionedCall/onnx_tf_prefix_Cast_559", "op": "Const", "attr": {"value": {"tensor": {"dtype": "DT_FLOAT", "tensorShape": {"dim": [{"size": "2"}]}}}, "dtype": {"type": "DT_FLOAT"}}}, {"name": "PartitionedCall/onnx_tf_prefix_Shape_560", "op": "Const", "attr": {"value": {"tensor": {"dtype": "DT_INT64", "tensorShape": {"dim": [{"size": "4"}]}}}, "dtype": {"type": "DT_INT64"}}}, {"name": "PartitionedCall/SelectV2_69", "op": "Const", "attr": {"value": {"tensor": {"dtype": "DT_INT64", "tensorShape": {"dim": [{"size": "1"}]}}}, "dtype": {"type": "DT_INT64"}}}, {"name": "PartitionedCall/zeros_17", "op": "Const", "attr": {"value": {"tensor": {"dtype": "DT_INT64", "tensorShape": {}}}, "dtype": {"type": "DT_INT64"}}}, {"name": "PartitionedCall/Const_260", "op": "Const", "attr": {"value": {"tensor": {"dtype": "DT_INT64", "tensorShape": {}}}, "dtype": {"type": "DT_INT64"}}}, {"name": "PartitionedCall/Shape_17", "op": "Const", "attr": {"value": {"tensor": {"dtype": "DT_INT64", "tensorShape": {"dim": [{"size": "1"}]}}}, "dtype": {"type": "DT_INT64"}}}, {"name": "PartitionedCall/ExpandDims_17", "op": "Const", "attr": {"value": {"tensor": {"dtype": "DT_INT64", "tensorShape": {"dim": [{"size": "1"}, {"size": "1"}]}}}, "dtype": {"type": "DT_INT64"}}}, {"name": "PartitionedCall/Cast_69", "op": "Const", "attr": {"value": {"tensor": {"dtype": "DT_INT64", "tensorShape": {"dim": [{"size": "1"}]}}}, "dtype": {"type": "DT_INT64"}}}, {"name": "PartitionedCall/SelectV2_70", "op": "Const", "attr": {"value": {"tensor": {"dtype": "DT_INT64", "tensorShape": {"dim": [{"size": "1"}]}}}, "dtype": {"type": "DT_INT64"}}}, {"name": "PartitionedCall/Const_259", "op": "Const", "attr": {"value": {"tensor": {"dtype": "DT_INT64", "tensorShape": {}}}, "dtype": {"type": "DT_INT64"}}}, {"name": "PartitionedCall/ones_17", "op": "Const", "attr": {"value": {"tensor": {"dtype": "DT_INT64", "tensorShape": {"dim": [{"size": "1"}]}}}, "dtype": {"type": "DT_INT64"}}}, {"name": "PartitionedCall/onnx_tf_prefix_Concat_567/axis", "op": "Const", "attr": {"value": {"tensor": {"dtype": "DT_INT32", "tensorShape": {}}}, "dtype": {"type": "DT_INT32"}}}, {"name": "PartitionedCall/strided_slice_17/stack", "op": "Const", "attr": {"value": {"tensor": {"dtype": "DT_INT32", "tensorShape": {"dim": [{"size": "1"}]}}}, "dtype": {"type": "DT_INT32"}}}, {"name": "PartitionedCall/strided_slice_17/stack_1", "op": "Const", "attr": {"value": {"tensor": {"dtype": "DT_INT32", "tensorShape": {"dim": [{"size": "1"}]}}}, "dtype": {"type": "DT_INT32"}}}, {"name": "PartitionedCall/strided_slice_17/stack_2", "op": "Const", "attr": {"value": {"tensor": {"dtype": "DT_INT32", "tensorShape": {"dim": [{"size": "1"}]}}}, "dtype": {"type": "DT_INT32"}}}, {"name": "PartitionedCall/Cast_70", "op": "Const", "attr": {"value": {"tensor": {"dtype": "DT_FLOAT", "tensorShape": {"dim": [{"size": "2"}]}}}, "dtype": {"type": "DT_FLOAT"}}}, {"name": "PartitionedCall/transpose_302/perm", "op": "Const", "attr": {"value": {"tensor": {"dtype": "DT_INT32", "tensorShape": {"dim": [{"size": "4"}]}}}, "dtype": {"type": "DT_INT32"}}}, {"name": "PartitionedCall/Const_239", "op": "Const", "attr": {"value": {"tensor": {"dtype": "DT_INT32", "tensorShape": {"dim": [{"size": "4"}, {"size": "2"}]}}}, "dtype": {"type": "DT_INT32"}}}, {"name": "PartitionedCall/transpose_278/perm", "op": "Const", "attr": {"value": {"tensor": {"dtype": "DT_INT32", "tensorShape": {"dim": [{"size": "4"}]}}}, "dtype": {"type": "DT_INT32"}}}, {"name": "PartitionedCall/split_138", "op": "Const", "attr": {"value": {"tensor": {"dtype": "DT_FLOAT", "tensorShape": {"dim": [{"size": "3"}, {"size": "3"}, {"size": "64"}, {"size": "16"}]}}}, "dtype": {"type": "DT_FLOAT"}}}, {"name": "unknown_138", "op": "Const", "attr": {"value": {"tensor": {"dtype": "DT_FLOAT", "tensorShape": {"dim": [{"size": "16"}]}}}, "dtype": {"type": "DT_FLOAT"}}}, {"name": "PartitionedCall/transpose_279/perm", "op": "Const", "attr": {"value": {"tensor": {"dtype": "DT_INT32", "tensorShape": {"dim": [{"size": "4"}]}}}, "dtype": {"type": "DT_INT32"}}}, {"name": "PartitionedCall/onnx_tf_prefix_Concat_569/axis", "op": "Const", "attr": {"value": {"tensor": {"dtype": "DT_INT32", "tensorShape": {}}}, "dtype": {"type": "DT_INT32"}}}, {"name": "PartitionedCall/Const_261", "op": "Const", "attr": {"value": {"tensor": {"dtype": "DT_INT32", "tensorShape": {"dim": [{"size": "4"}, {"size": "2"}]}}}, "dtype": {"type": "DT_INT32"}}}, {"name": "PartitionedCall/transpose_304/perm", "op": "Const", "attr": {"value": {"tensor": {"dtype": "DT_INT32", "tensorShape": {"dim": [{"size": "4"}]}}}, "dtype": {"type": "DT_INT32"}}}, {"name": "PartitionedCall/split_150", "op": "Const", "attr": {"value": {"tensor": {"dtype": "DT_FLOAT", "tensorShape": {"dim": [{"size": "3"}, {"size": "3"}, {"size": "32"}, {"size": "64"}]}}}, "dtype": {"type": "DT_FLOAT"}}}, {"name": "unknown_150", "op": "Const", "attr": {"value": {"tensor": {"dtype": "DT_FLOAT", "tensorShape": {"dim": [{"size": "64"}]}}}, "dtype": {"type": "DT_FLOAT"}}}, {"name": "PartitionedCall/transpose_305/perm", "op": "Const", "attr": {"value": {"tensor": {"dtype": "DT_INT32", "tensorShape": {"dim": [{"size": "4"}]}}}, "dtype": {"type": "DT_INT32"}}}, {"name": "PartitionedCall/transpose_272/perm", "op": "Const", "attr": {"value": {"tensor": {"dtype": "DT_INT32", "tensorShape": {"dim": [{"size": "4"}]}}}, "dtype": {"type": "DT_INT32"}}}, {"name": "PartitionedCall/onnx_tf_prefix_Constant_499", "op": "Const", "attr": {"value": {"tensor": {"dtype": "DT_FLOAT", "tensorShape": {"dim": [{"size": "2"}]}}}, "dtype": {"type": "DT_FLOAT"}}}, {"name": "PartitionedCall/onnx_tf_prefix_Cast_500", "op": "Const", "attr": {"value": {"tensor": {"dtype": "DT_FLOAT", "tensorShape": {"dim": [{"size": "2"}]}}}, "dtype": {"type": "DT_FLOAT"}}}, {"name": "PartitionedCall/onnx_tf_prefix_Shape_501", "op": "Const", "attr": {"value": {"tensor": {"dtype": "DT_INT64", "tensorShape": {"dim": [{"size": "4"}]}}}, "dtype": {"type": "DT_INT64"}}}, {"name": "PartitionedCall/SelectV2_61", "op": "Const", "attr": {"value": {"tensor": {"dtype": "DT_INT64", "tensorShape": {"dim": [{"size": "1"}]}}}, "dtype": {"type": "DT_INT64"}}}, {"name": "PartitionedCall/zeros_15", "op": "Const", "attr": {"value": {"tensor": {"dtype": "DT_INT64", "tensorShape": {}}}, "dtype": {"type": "DT_INT64"}}}, {"name": "PartitionedCall/Const_235", "op": "Const", "attr": {"value": {"tensor": {"dtype": "DT_INT64", "tensorShape": {}}}, "dtype": {"type": "DT_INT64"}}}, {"name": "PartitionedCall/Shape_15", "op": "Const", "attr": {"value": {"tensor": {"dtype": "DT_INT64", "tensorShape": {"dim": [{"size": "1"}]}}}, "dtype": {"type": "DT_INT64"}}}, {"name": "PartitionedCall/ExpandDims_15", "op": "Const", "attr": {"value": {"tensor": {"dtype": "DT_INT64", "tensorShape": {"dim": [{"size": "1"}, {"size": "1"}]}}}, "dtype": {"type": "DT_INT64"}}}, {"name": "PartitionedCall/Cast_61", "op": "Const", "attr": {"value": {"tensor": {"dtype": "DT_INT64", "tensorShape": {"dim": [{"size": "1"}]}}}, "dtype": {"type": "DT_INT64"}}}, {"name": "PartitionedCall/SelectV2_62", "op": "Const", "attr": {"value": {"tensor": {"dtype": "DT_INT64", "tensorShape": {"dim": [{"size": "1"}]}}}, "dtype": {"type": "DT_INT64"}}}, {"name": "PartitionedCall/Const_234", "op": "Const", "attr": {"value": {"tensor": {"dtype": "DT_INT64", "tensorShape": {}}}, "dtype": {"type": "DT_INT64"}}}, {"name": "PartitionedCall/ones_15", "op": "Const", "attr": {"value": {"tensor": {"dtype": "DT_INT64", "tensorShape": {"dim": [{"size": "1"}]}}}, "dtype": {"type": "DT_INT64"}}}, {"name": "PartitionedCall/onnx_tf_prefix_Concat_508/axis", "op": "Const", "attr": {"value": {"tensor": {"dtype": "DT_INT32", "tensorShape": {}}}, "dtype": {"type": "DT_INT32"}}}, {"name": "PartitionedCall/strided_slice_15/stack", "op": "Const", "attr": {"value": {"tensor": {"dtype": "DT_INT32", "tensorShape": {"dim": [{"size": "1"}]}}}, "dtype": {"type": "DT_INT32"}}}, {"name": "PartitionedCall/strided_slice_15/stack_1", "op": "Const", "attr": {"value": {"tensor": {"dtype": "DT_INT32", "tensorShape": {"dim": [{"size": "1"}]}}}, "dtype": {"type": "DT_INT32"}}}, {"name": "PartitionedCall/strided_slice_15/stack_2", "op": "Const", "attr": {"value": {"tensor": {"dtype": "DT_INT32", "tensorShape": {"dim": [{"size": "1"}]}}}, "dtype": {"type": "DT_INT32"}}}, {"name": "PartitionedCall/Cast_62", "op": "Const", "attr": {"value": {"tensor": {"dtype": "DT_FLOAT", "tensorShape": {"dim": [{"size": "2"}]}}}, "dtype": {"type": "DT_FLOAT"}}}, {"name": "PartitionedCall/transpose_273/perm", "op": "Const", "attr": {"value": {"tensor": {"dtype": "DT_INT32", "tensorShape": {"dim": [{"size": "4"}]}}}, "dtype": {"type": "DT_INT32"}}}, {"name": "PartitionedCall/onnx_tf_prefix_Concat_510/axis", "op": "Const", "attr": {"value": {"tensor": {"dtype": "DT_INT32", "tensorShape": {}}}, "dtype": {"type": "DT_INT32"}}}, {"name": "PartitionedCall/Const_236", "op": "Const", "attr": {"value": {"tensor": {"dtype": "DT_INT32", "tensorShape": {"dim": [{"size": "4"}, {"size": "2"}]}}}, "dtype": {"type": "DT_INT32"}}}, {"name": "PartitionedCall/transpose_275/perm", "op": "Const", "attr": {"value": {"tensor": {"dtype": "DT_INT32", "tensorShape": {"dim": [{"size": "4"}]}}}, "dtype": {"type": "DT_INT32"}}}, {"name": "PartitionedCall/split_136", "op": "Const", "attr": {"value": {"tensor": {"dtype": "DT_FLOAT", "tensorShape": {"dim": [{"size": "3"}, {"size": "3"}, {"size": "128"}, {"size": "64"}]}}}, "dtype": {"type": "DT_FLOAT"}}}, {"name": "unknown_136", "op": "Const", "attr": {"value": {"tensor": {"dtype": "DT_FLOAT", "tensorShape": {"dim": [{"size": "64"}]}}}, "dtype": {"type": "DT_FLOAT"}}}, {"name": "PartitionedCall/transpose_276/perm", "op": "Const", "attr": {"value": {"tensor": {"dtype": "DT_INT32", "tensorShape": {"dim": [{"size": "4"}]}}}, "dtype": {"type": "DT_INT32"}}}, {"name": "PartitionedCall/Const_415", "op": "Const", "attr": {"value": {"tensor": {"dtype": "DT_INT32", "tensorShape": {"dim": [{"size": "4"}, {"size": "2"}]}}}, "dtype": {"type": "DT_INT32"}}}, {"name": "PartitionedCall/transpose_482/perm", "op": "Const", "attr": {"value": {"tensor": {"dtype": "DT_INT32", "tensorShape": {"dim": [{"size": "4"}]}}}, "dtype": {"type": "DT_INT32"}}}, {"name": "PartitionedCall/split_230", "op": "Const", "attr": {"value": {"tensor": {"dtype": "DT_FLOAT", "tensorShape": {"dim": [{"size": "3"}, {"size": "3"}, {"size": "64"}, {"size": "1"}]}}}, "dtype": {"type": "DT_FLOAT"}}}, {"name": "unknown_230", "op": "Const", "attr": {"value": {"tensor": {"dtype": "DT_FLOAT", "tensorShape": {"dim": [{"size": "1"}]}}}, "dtype": {"type": "DT_FLOAT"}}}, {"name": "PartitionedCall/onnx_tf_prefix_Constant_1031", "op": "Const", "attr": {"value": {"tensor": {"dtype": "DT_FLOAT", "tensorShape": {"dim": [{"size": "2"}]}}}, "dtype": {"type": "DT_FLOAT"}}}, {"name": "PartitionedCall/onnx_tf_prefix_Cast_1032", "op": "Const", "attr": {"value": {"tensor": {"dtype": "DT_FLOAT", "tensorShape": {"dim": [{"size": "2"}]}}}, "dtype": {"type": "DT_FLOAT"}}}, {"name": "PartitionedCall/onnx_tf_prefix_Shape_1033", "op": "Const", "attr": {"value": {"tensor": {"dtype": "DT_INT64", "tensorShape": {"dim": [{"size": "4"}]}}}, "dtype": {"type": "DT_INT64"}}}, {"name": "PartitionedCall/SelectV2_141", "op": "Const", "attr": {"value": {"tensor": {"dtype": "DT_INT64", "tensorShape": {"dim": [{"size": "1"}]}}}, "dtype": {"type": "DT_INT64"}}}, {"name": "PartitionedCall/zeros_35", "op": "Const", "attr": {"value": {"tensor": {"dtype": "DT_INT64", "tensorShape": {}}}, "dtype": {"type": "DT_INT64"}}}, {"name": "PartitionedCall/Const_419", "op": "Const", "attr": {"value": {"tensor": {"dtype": "DT_INT64", "tensorShape": {}}}, "dtype": {"type": "DT_INT64"}}}, {"name": "PartitionedCall/Shape_35", "op": "Const", "attr": {"value": {"tensor": {"dtype": "DT_INT64", "tensorShape": {"dim": [{"size": "1"}]}}}, "dtype": {"type": "DT_INT64"}}}, {"name": "PartitionedCall/ExpandDims_35", "op": "Const", "attr": {"value": {"tensor": {"dtype": "DT_INT64", "tensorShape": {"dim": [{"size": "1"}, {"size": "1"}]}}}, "dtype": {"type": "DT_INT64"}}}, {"name": "PartitionedCall/Cast_141", "op": "Const", "attr": {"value": {"tensor": {"dtype": "DT_INT64", "tensorShape": {"dim": [{"size": "1"}]}}}, "dtype": {"type": "DT_INT64"}}}, {"name": "PartitionedCall/SelectV2_142", "op": "Const", "attr": {"value": {"tensor": {"dtype": "DT_INT64", "tensorShape": {"dim": [{"size": "1"}]}}}, "dtype": {"type": "DT_INT64"}}}, {"name": "PartitionedCall/Const_418", "op": "Const", "attr": {"value": {"tensor": {"dtype": "DT_INT64", "tensorShape": {}}}, "dtype": {"type": "DT_INT64"}}}, {"name": "PartitionedCall/ones_35", "op": "Const", "attr": {"value": {"tensor": {"dtype": "DT_INT64", "tensorShape": {"dim": [{"size": "1"}]}}}, "dtype": {"type": "DT_INT64"}}}, {"name": "PartitionedCall/onnx_tf_prefix_Concat_1040/axis", "op": "Const", "attr": {"value": {"tensor": {"dtype": "DT_INT32", "tensorShape": {}}}, "dtype": {"type": "DT_INT32"}}}, {"name": "PartitionedCall/strided_slice_35/stack", "op": "Const", "attr": {"value": {"tensor": {"dtype": "DT_INT32", "tensorShape": {"dim": [{"size": "1"}]}}}, "dtype": {"type": "DT_INT32"}}}, {"name": "PartitionedCall/strided_slice_35/stack_1", "op": "Const", "attr": {"value": {"tensor": {"dtype": "DT_INT32", "tensorShape": {"dim": [{"size": "1"}]}}}, "dtype": {"type": "DT_INT32"}}}, {"name": "PartitionedCall/strided_slice_35/stack_2", "op": "Const", "attr": {"value": {"tensor": {"dtype": "DT_INT32", "tensorShape": {"dim": [{"size": "1"}]}}}, "dtype": {"type": "DT_INT32"}}}, {"name": "PartitionedCall/Cast_142", "op": "Const", "attr": {"value": {"tensor": {"dtype": "DT_FLOAT", "tensorShape": {"dim": [{"size": "2"}]}}}, "dtype": {"type": "DT_FLOAT"}}}, {"name": "PartitionedCall/transpose_485/perm", "op": "Const", "attr": {"value": {"tensor": {"dtype": "DT_INT32", "tensorShape": {"dim": [{"size": "4"}]}}}, "dtype": {"type": "DT_INT32"}}}, {"name": "PartitionedCall/Const_222", "op": "Const", "attr": {"value": {"tensor": {"dtype": "DT_INT32", "tensorShape": {"dim": [{"size": "4"}, {"size": "2"}]}}}, "dtype": {"type": "DT_INT32"}}}, {"name": "PartitionedCall/transpose_261/perm", "op": "Const", "attr": {"value": {"tensor": {"dtype": "DT_INT32", "tensorShape": {"dim": [{"size": "4"}]}}}, "dtype": {"type": "DT_INT32"}}}, {"name": "PartitionedCall/convolution_64/SpaceToBatchND/block_shape", "op": "Const", "attr": {"value": {"tensor": {"dtype": "DT_INT32", "tensorShape": {"dim": [{"size": "2"}]}}}, "dtype": {"type": "DT_INT32"}}}, {"name": "PartitionedCall/convolution_64/SpaceToBatchND/paddings", "op": "Const", "attr": {"value": {"tensor": {"dtype": "DT_INT32", "tensorShape": {"dim": [{"size": "2"}, {"size": "2"}]}}}, "dtype": {"type": "DT_INT32"}}}, {"name": "PartitionedCall/split_128", "op": "Const", "attr": {"value": {"tensor": {"dtype": "DT_FLOAT", "tensorShape": {"dim": [{"size": "3"}, {"size": "3"}, {"size": "16"}, {"size": "16"}]}}}, "dtype": {"type": "DT_FLOAT"}}}, {"name": "PartitionedCall/convolution_64/BatchToSpaceND/block_shape", "op": "Const", "attr": {"value": {"tensor": {"dtype": "DT_INT32", "tensorShape": {"dim": [{"size": "2"}]}}}, "dtype": {"type": "DT_INT32"}}}, {"name": "PartitionedCall/convolution_64/BatchToSpaceND/crops", "op": "Const", "attr": {"value": {"tensor": {"dtype": "DT_INT32", "tensorShape": {"dim": [{"size": "2"}, {"size": "2"}]}}}, "dtype": {"type": "DT_INT32"}}}, {"name": "unknown_128", "op": "Const", "attr": {"value": {"tensor": {"dtype": "DT_FLOAT", "tensorShape": {"dim": [{"size": "16"}]}}}, "dtype": {"type": "DT_FLOAT"}}}, {"name": "PartitionedCall/transpose_262/perm", "op": "Const", "attr": {"value": {"tensor": {"dtype": "DT_INT32", "tensorShape": {"dim": [{"size": "4"}]}}}, "dtype": {"type": "DT_INT32"}}}, {"name": "PartitionedCall/Const_219", "op": "Const", "attr": {"value": {"tensor": {"dtype": "DT_INT32", "tensorShape": {"dim": [{"size": "4"}, {"size": "2"}]}}}, "dtype": {"type": "DT_INT32"}}}, {"name": "PartitionedCall/transpose_258/perm", "op": "Const", "attr": {"value": {"tensor": {"dtype": "DT_INT32", "tensorShape": {"dim": [{"size": "4"}]}}}, "dtype": {"type": "DT_INT32"}}}, {"name": "PartitionedCall/convolution_63/SpaceToBatchND/block_shape", "op": "Const", "attr": {"value": {"tensor": {"dtype": "DT_INT32", "tensorShape": {"dim": [{"size": "2"}]}}}, "dtype": {"type": "DT_INT32"}}}, {"name": "PartitionedCall/convolution_63/SpaceToBatchND/paddings", "op": "Const", "attr": {"value": {"tensor": {"dtype": "DT_INT32", "tensorShape": {"dim": [{"size": "2"}, {"size": "2"}]}}}, "dtype": {"type": "DT_INT32"}}}, {"name": "PartitionedCall/split_126", "op": "Const", "attr": {"value": {"tensor": {"dtype": "DT_FLOAT", "tensorShape": {"dim": [{"size": "3"}, {"size": "3"}, {"size": "16"}, {"size": "16"}]}}}, "dtype": {"type": "DT_FLOAT"}}}, {"name": "PartitionedCall/convolution_63/BatchToSpaceND/block_shape", "op": "Const", "attr": {"value": {"tensor": {"dtype": "DT_INT32", "tensorShape": {"dim": [{"size": "2"}]}}}, "dtype": {"type": "DT_INT32"}}}, {"name": "PartitionedCall/convolution_63/BatchToSpaceND/crops", "op": "Const", "attr": {"value": {"tensor": {"dtype": "DT_INT32", "tensorShape": {"dim": [{"size": "2"}, {"size": "2"}]}}}, "dtype": {"type": "DT_INT32"}}}, {"name": "unknown_126", "op": "Const", "attr": {"value": {"tensor": {"dtype": "DT_FLOAT", "tensorShape": {"dim": [{"size": "16"}]}}}, "dtype": {"type": "DT_FLOAT"}}}, {"name": "PartitionedCall/transpose_259/perm", "op": "Const", "attr": {"value": {"tensor": {"dtype": "DT_INT32", "tensorShape": {"dim": [{"size": "4"}]}}}, "dtype": {"type": "DT_INT32"}}}, {"name": "PartitionedCall/onnx_tf_prefix_Concat_480/axis", "op": "Const", "attr": {"value": {"tensor": {"dtype": "DT_INT32", "tensorShape": {}}}, "dtype": {"type": "DT_INT32"}}}, {"name": "PartitionedCall/Const_225", "op": "Const", "attr": {"value": {"tensor": {"dtype": "DT_INT32", "tensorShape": {"dim": [{"size": "4"}, {"size": "2"}]}}}, "dtype": {"type": "DT_INT32"}}}, {"name": "PartitionedCall/transpose_264/perm", "op": "Const", "attr": {"value": {"tensor": {"dtype": "DT_INT32", "tensorShape": {"dim": [{"size": "4"}]}}}, "dtype": {"type": "DT_INT32"}}}, {"name": "PartitionedCall/convolution_65/SpaceToBatchND/block_shape", "op": "Const", "attr": {"value": {"tensor": {"dtype": "DT_INT32", "tensorShape": {"dim": [{"size": "2"}]}}}, "dtype": {"type": "DT_INT32"}}}, {"name": "PartitionedCall/convolution_65/SpaceToBatchND/paddings", "op": "Const", "attr": {"value": {"tensor": {"dtype": "DT_INT32", "tensorShape": {"dim": [{"size": "2"}, {"size": "2"}]}}}, "dtype": {"type": "DT_INT32"}}}, {"name": "PartitionedCall/split_130", "op": "Const", "attr": {"value": {"tensor": {"dtype": "DT_FLOAT", "tensorShape": {"dim": [{"size": "3"}, {"size": "3"}, {"size": "32"}, {"size": "16"}]}}}, "dtype": {"type": "DT_FLOAT"}}}, {"name": "PartitionedCall/convolution_65/BatchToSpaceND/block_shape", "op": "Const", "attr": {"value": {"tensor": {"dtype": "DT_INT32", "tensorShape": {"dim": [{"size": "2"}]}}}, "dtype": {"type": "DT_INT32"}}}, {"name": "PartitionedCall/convolution_65/BatchToSpaceND/crops", "op": "Const", "attr": {"value": {"tensor": {"dtype": "DT_INT32", "tensorShape": {"dim": [{"size": "2"}, {"size": "2"}]}}}, "dtype": {"type": "DT_INT32"}}}, {"name": "unknown_130", "op": "Const", "attr": {"value": {"tensor": {"dtype": "DT_FLOAT", "tensorShape": {"dim": [{"size": "16"}]}}}, "dtype": {"type": "DT_FLOAT"}}}, {"name": "PartitionedCall/transpose_265/perm", "op": "Const", "attr": {"value": {"tensor": {"dtype": "DT_INT32", "tensorShape": {"dim": [{"size": "4"}]}}}, "dtype": {"type": "DT_INT32"}}}, {"name": "PartitionedCall/Const_216", "op": "Const", "attr": {"value": {"tensor": {"dtype": "DT_INT32", "tensorShape": {"dim": [{"size": "4"}, {"size": "2"}]}}}, "dtype": {"type": "DT_INT32"}}}, {"name": "PartitionedCall/transpose_255/perm", "op": "Const", "attr": {"value": {"tensor": {"dtype": "DT_INT32", "tensorShape": {"dim": [{"size": "4"}]}}}, "dtype": {"type": "DT_INT32"}}}, {"name": "PartitionedCall/convolution_62/SpaceToBatchND/block_shape", "op": "Const", "attr": {"value": {"tensor": {"dtype": "DT_INT32", "tensorShape": {"dim": [{"size": "2"}]}}}, "dtype": {"type": "DT_INT32"}}}, {"name": "PartitionedCall/convolution_62/SpaceToBatchND/paddings", "op": "Const", "attr": {"value": {"tensor": {"dtype": "DT_INT32", "tensorShape": {"dim": [{"size": "2"}, {"size": "2"}]}}}, "dtype": {"type": "DT_INT32"}}}, {"name": "PartitionedCall/split_124", "op": "Const", "attr": {"value": {"tensor": {"dtype": "DT_FLOAT", "tensorShape": {"dim": [{"size": "3"}, {"size": "3"}, {"size": "16"}, {"size": "16"}]}}}, "dtype": {"type": "DT_FLOAT"}}}, {"name": "PartitionedCall/convolution_62/BatchToSpaceND/block_shape", "op": "Const", "attr": {"value": {"tensor": {"dtype": "DT_INT32", "tensorShape": {"dim": [{"size": "2"}]}}}, "dtype": {"type": "DT_INT32"}}}, {"name": "PartitionedCall/convolution_62/BatchToSpaceND/crops", "op": "Const", "attr": {"value": {"tensor": {"dtype": "DT_INT32", "tensorShape": {"dim": [{"size": "2"}, {"size": "2"}]}}}, "dtype": {"type": "DT_INT32"}}}, {"name": "unknown_124", "op": "Const", "attr": {"value": {"tensor": {"dtype": "DT_FLOAT", "tensorShape": {"dim": [{"size": "16"}]}}}, "dtype": {"type": "DT_FLOAT"}}}, {"name": "PartitionedCall/transpose_256/perm", "op": "Const", "attr": {"value": {"tensor": {"dtype": "DT_INT32", "tensorShape": {"dim": [{"size": "4"}]}}}, "dtype": {"type": "DT_INT32"}}}, {"name": "PartitionedCall/onnx_tf_prefix_Concat_483/axis", "op": "Const", "attr": {"value": {"tensor": {"dtype": "DT_INT32", "tensorShape": {}}}, "dtype": {"type": "DT_INT32"}}}, {"name": "PartitionedCall/Const_228", "op": "Const", "attr": {"value": {"tensor": {"dtype": "DT_INT32", "tensorShape": {"dim": [{"size": "4"}, {"size": "2"}]}}}, "dtype": {"type": "DT_INT32"}}}, {"name": "PartitionedCall/transpose_267/perm", "op": "Const", "attr": {"value": {"tensor": {"dtype": "DT_INT32", "tensorShape": {"dim": [{"size": "4"}]}}}, "dtype": {"type": "DT_INT32"}}}, {"name": "PartitionedCall/convolution_66/SpaceToBatchND/block_shape", "op": "Const", "attr": {"value": {"tensor": {"dtype": "DT_INT32", "tensorShape": {"dim": [{"size": "2"}]}}}, "dtype": {"type": "DT_INT32"}}}, {"name": "PartitionedCall/convolution_66/SpaceToBatchND/paddings", "op": "Const", "attr": {"value": {"tensor": {"dtype": "DT_INT32", "tensorShape": {"dim": [{"size": "2"}, {"size": "2"}]}}}, "dtype": {"type": "DT_INT32"}}}, {"name": "PartitionedCall/split_132", "op": "Const", "attr": {"value": {"tensor": {"dtype": "DT_FLOAT", "tensorShape": {"dim": [{"size": "3"}, {"size": "3"}, {"size": "32"}, {"size": "16"}]}}}, "dtype": {"type": "DT_FLOAT"}}}, {"name": "PartitionedCall/convolution_66/BatchToSpaceND/block_shape", "op": "Const", "attr": {"value": {"tensor": {"dtype": "DT_INT32", "tensorShape": {"dim": [{"size": "2"}]}}}, "dtype": {"type": "DT_INT32"}}}, {"name": "PartitionedCall/convolution_66/BatchToSpaceND/crops", "op": "Const", "attr": {"value": {"tensor": {"dtype": "DT_INT32", "tensorShape": {"dim": [{"size": "2"}, {"size": "2"}]}}}, "dtype": {"type": "DT_INT32"}}}, {"name": "unknown_132", "op": "Const", "attr": {"value": {"tensor": {"dtype": "DT_FLOAT", "tensorShape": {"dim": [{"size": "16"}]}}}, "dtype": {"type": "DT_FLOAT"}}}, {"name": "PartitionedCall/transpose_268/perm", "op": "Const", "attr": {"value": {"tensor": {"dtype": "DT_INT32", "tensorShape": {"dim": [{"size": "4"}]}}}, "dtype": {"type": "DT_INT32"}}}, {"name": "PartitionedCall/Const_213", "op": "Const", "attr": {"value": {"tensor": {"dtype": "DT_INT32", "tensorShape": {"dim": [{"size": "4"}, {"size": "2"}]}}}, "dtype": {"type": "DT_INT32"}}}, {"name": "PartitionedCall/transpose_252/perm", "op": "Const", "attr": {"value": {"tensor": {"dtype": "DT_INT32", "tensorShape": {"dim": [{"size": "4"}]}}}, "dtype": {"type": "DT_INT32"}}}, {"name": "PartitionedCall/split_122", "op": "Const", "attr": {"value": {"tensor": {"dtype": "DT_FLOAT", "tensorShape": {"dim": [{"size": "3"}, {"size": "3"}, {"size": "64"}, {"size": "16"}]}}}, "dtype": {"type": "DT_FLOAT"}}}, {"name": "unknown_122", "op": "Const", "attr": {"value": {"tensor": {"dtype": "DT_FLOAT", "tensorShape": {"dim": [{"size": "16"}]}}}, "dtype": {"type": "DT_FLOAT"}}}, {"name": "PartitionedCall/transpose_253/perm", "op": "Const", "attr": {"value": {"tensor": {"dtype": "DT_INT32", "tensorShape": {"dim": [{"size": "4"}]}}}, "dtype": {"type": "DT_INT32"}}}, {"name": "PartitionedCall/onnx_tf_prefix_Concat_486/axis", "op": "Const", "attr": {"value": {"tensor": {"dtype": "DT_INT32", "tensorShape": {}}}, "dtype": {"type": "DT_INT32"}}}, {"name": "PartitionedCall/Const_231", "op": "Const", "attr": {"value": {"tensor": {"dtype": "DT_INT32", "tensorShape": {"dim": [{"size": "4"}, {"size": "2"}]}}}, "dtype": {"type": "DT_INT32"}}}, {"name": "PartitionedCall/transpose_270/perm", "op": "Const", "attr": {"value": {"tensor": {"dtype": "DT_INT32", "tensorShape": {"dim": [{"size": "4"}]}}}, "dtype": {"type": "DT_INT32"}}}, {"name": "PartitionedCall/split_134", "op": "Const", "attr": {"value": {"tensor": {"dtype": "DT_FLOAT", "tensorShape": {"dim": [{"size": "3"}, {"size": "3"}, {"size": "32"}, {"size": "64"}]}}}, "dtype": {"type": "DT_FLOAT"}}}, {"name": "unknown_134", "op": "Const", "attr": {"value": {"tensor": {"dtype": "DT_FLOAT", "tensorShape": {"dim": [{"size": "64"}]}}}, "dtype": {"type": "DT_FLOAT"}}}, {"name": "PartitionedCall/transpose_271/perm", "op": "Const", "attr": {"value": {"tensor": {"dtype": "DT_INT32", "tensorShape": {"dim": [{"size": "4"}]}}}, "dtype": {"type": "DT_INT32"}}}, {"name": "PartitionedCall/transpose_246/perm", "op": "Const", "attr": {"value": {"tensor": {"dtype": "DT_INT32", "tensorShape": {"dim": [{"size": "4"}]}}}, "dtype": {"type": "DT_INT32"}}}, {"name": "PartitionedCall/onnx_tf_prefix_Constant_458", "op": "Const", "attr": {"value": {"tensor": {"dtype": "DT_FLOAT", "tensorShape": {"dim": [{"size": "2"}]}}}, "dtype": {"type": "DT_FLOAT"}}}, {"name": "PartitionedCall/onnx_tf_prefix_Cast_459", "op": "Const", "attr": {"value": {"tensor": {"dtype": "DT_FLOAT", "tensorShape": {"dim": [{"size": "2"}]}}}, "dtype": {"type": "DT_FLOAT"}}}, {"name": "PartitionedCall/onnx_tf_prefix_Shape_460", "op": "Const", "attr": {"value": {"tensor": {"dtype": "DT_INT64", "tensorShape": {"dim": [{"size": "4"}]}}}, "dtype": {"type": "DT_INT64"}}}, {"name": "PartitionedCall/SelectV2_57", "op": "Const", "attr": {"value": {"tensor": {"dtype": "DT_INT64", "tensorShape": {"dim": [{"size": "1"}]}}}, "dtype": {"type": "DT_INT64"}}}, {"name": "PartitionedCall/zeros_14", "op": "Const", "attr": {"value": {"tensor": {"dtype": "DT_INT64", "tensorShape": {}}}, "dtype": {"type": "DT_INT64"}}}, {"name": "PartitionedCall/Const_209", "op": "Const", "attr": {"value": {"tensor": {"dtype": "DT_INT64", "tensorShape": {}}}, "dtype": {"type": "DT_INT64"}}}, {"name": "PartitionedCall/Shape_14", "op": "Const", "attr": {"value": {"tensor": {"dtype": "DT_INT64", "tensorShape": {"dim": [{"size": "1"}]}}}, "dtype": {"type": "DT_INT64"}}}, {"name": "PartitionedCall/ExpandDims_14", "op": "Const", "attr": {"value": {"tensor": {"dtype": "DT_INT64", "tensorShape": {"dim": [{"size": "1"}, {"size": "1"}]}}}, "dtype": {"type": "DT_INT64"}}}, {"name": "PartitionedCall/Cast_57", "op": "Const", "attr": {"value": {"tensor": {"dtype": "DT_INT64", "tensorShape": {"dim": [{"size": "1"}]}}}, "dtype": {"type": "DT_INT64"}}}, {"name": "PartitionedCall/SelectV2_58", "op": "Const", "attr": {"value": {"tensor": {"dtype": "DT_INT64", "tensorShape": {"dim": [{"size": "1"}]}}}, "dtype": {"type": "DT_INT64"}}}, {"name": "PartitionedCall/Const_208", "op": "Const", "attr": {"value": {"tensor": {"dtype": "DT_INT64", "tensorShape": {}}}, "dtype": {"type": "DT_INT64"}}}, {"name": "PartitionedCall/ones_14", "op": "Const", "attr": {"value": {"tensor": {"dtype": "DT_INT64", "tensorShape": {"dim": [{"size": "1"}]}}}, "dtype": {"type": "DT_INT64"}}}, {"name": "PartitionedCall/onnx_tf_prefix_Concat_467/axis", "op": "Const", "attr": {"value": {"tensor": {"dtype": "DT_INT32", "tensorShape": {}}}, "dtype": {"type": "DT_INT32"}}}, {"name": "PartitionedCall/strided_slice_14/stack", "op": "Const", "attr": {"value": {"tensor": {"dtype": "DT_INT32", "tensorShape": {"dim": [{"size": "1"}]}}}, "dtype": {"type": "DT_INT32"}}}, {"name": "PartitionedCall/strided_slice_14/stack_1", "op": "Const", "attr": {"value": {"tensor": {"dtype": "DT_INT32", "tensorShape": {"dim": [{"size": "1"}]}}}, "dtype": {"type": "DT_INT32"}}}, {"name": "PartitionedCall/strided_slice_14/stack_2", "op": "Const", "attr": {"value": {"tensor": {"dtype": "DT_INT32", "tensorShape": {"dim": [{"size": "1"}]}}}, "dtype": {"type": "DT_INT32"}}}, {"name": "PartitionedCall/Cast_58", "op": "Const", "attr": {"value": {"tensor": {"dtype": "DT_FLOAT", "tensorShape": {"dim": [{"size": "2"}]}}}, "dtype": {"type": "DT_FLOAT"}}}, {"name": "PartitionedCall/transpose_247/perm", "op": "Const", "attr": {"value": {"tensor": {"dtype": "DT_INT32", "tensorShape": {"dim": [{"size": "4"}]}}}, "dtype": {"type": "DT_INT32"}}}, {"name": "PartitionedCall/onnx_tf_prefix_Concat_469/axis", "op": "Const", "attr": {"value": {"tensor": {"dtype": "DT_INT32", "tensorShape": {}}}, "dtype": {"type": "DT_INT32"}}}, {"name": "PartitionedCall/Const_210", "op": "Const", "attr": {"value": {"tensor": {"dtype": "DT_INT32", "tensorShape": {"dim": [{"size": "4"}, {"size": "2"}]}}}, "dtype": {"type": "DT_INT32"}}}, {"name": "PartitionedCall/transpose_249/perm", "op": "Const", "attr": {"value": {"tensor": {"dtype": "DT_INT32", "tensorShape": {"dim": [{"size": "4"}]}}}, "dtype": {"type": "DT_INT32"}}}, {"name": "PartitionedCall/split_120", "op": "Const", "attr": {"value": {"tensor": {"dtype": "DT_FLOAT", "tensorShape": {"dim": [{"size": "3"}, {"size": "3"}, {"size": "128"}, {"size": "64"}]}}}, "dtype": {"type": "DT_FLOAT"}}}, {"name": "unknown_120", "op": "Const", "attr": {"value": {"tensor": {"dtype": "DT_FLOAT", "tensorShape": {"dim": [{"size": "64"}]}}}, "dtype": {"type": "DT_FLOAT"}}}, {"name": "PartitionedCall/transpose_250/perm", "op": "Const", "attr": {"value": {"tensor": {"dtype": "DT_INT32", "tensorShape": {"dim": [{"size": "4"}]}}}, "dtype": {"type": "DT_INT32"}}}, {"name": "PartitionedCall/Const_420", "op": "Const", "attr": {"value": {"tensor": {"dtype": "DT_INT32", "tensorShape": {"dim": [{"size": "4"}, {"size": "2"}]}}}, "dtype": {"type": "DT_INT32"}}}, {"name": "PartitionedCall/transpose_487/perm", "op": "Const", "attr": {"value": {"tensor": {"dtype": "DT_INT32", "tensorShape": {"dim": [{"size": "4"}]}}}, "dtype": {…
 "int32"}, {"name": "PartitionedCall/Const_169", "shape": [4, 2], "dtype": "int32"}, {"name": "PartitionedCall/transpose_206/perm", "shape": [4], "dtype": "int32"}, {"name": "PartitionedCall/convolution_47/SpaceToBatchND/block_shape", "shape": [2], "dtype": "int32"}, {"name": "PartitionedCall/convolution_47/SpaceToBatchND/paddings", "shape": [2, 2], "dtype": "int32"}, {"name": "PartitionedCall/split_94", "shape": [3, 3, 16, 16], "dtype": "float32"}, {"name": "PartitionedCall/convolution_47/BatchToSpaceND/block_shape", "shape": [2], "dtype": "int32"}, {"name": "PartitionedCall/convolution_47/BatchToSpaceND/crops", "shape": [2, 2], "dtype": "int32"}, {"name": "unknown_94", "shape": [16], "dtype": "float32"}, {"name": "PartitionedCall/transpose_207/perm", "shape": [4], "dtype": "int32"}, {"name": "PartitionedCall/onnx_tf_prefix_Concat_418/axis", "shape": [], "dtype": "int32"}, {"name": "PartitionedCall/Const_175", "shape": [4, 2], "dtype": "int32"}, {"name": "PartitionedCall/transpose_212/perm", "shape": [4], "dtype": "int32"}, {"name": "PartitionedCall/convolution_49/SpaceToBatchND/block_shape", "shape": [2], "dtype": "int32"}, {"name": "PartitionedCall/convolution_49/SpaceToBatchND/paddings", "shape": [2, 2], "dtype": "int32"}, {"name": "PartitionedCall/split_98", "shape": [3, 3, 32, 16], "dtype": "float32"}, {"name": "PartitionedCall/convolution_49/BatchToSpaceND/block_shape", "shape": [2], "dtype": "int32"}, {"name": "PartitionedCall/convolution_49/BatchToSpaceND/crops", "shape": [2, 2], "dtype": "int32"}, {"name": "unknown_98", "shape": [16], "dtype": "float32"}, {"name": "PartitionedCall/transpose_213/perm", "shape": [4], "dtype": "int32"}, {"name": "PartitionedCall/Const_166", "shape": [4, 2], "dtype": "int32"}, {"name": "PartitionedCall/transpose_203/perm", "shape": [4], "dtype": "int32"}, {"name": "PartitionedCall/convolution_46/SpaceToBatchND/block_shape", "shape": [2], "dtype": "int32"}, {"name": "PartitionedCall/convolution_46/SpaceToBatchND/paddings", "shape": [2, 2], "dtype": "int32"}, {"name": "PartitionedCall/split_92", "shape": [3, 3, 16, 16], "dtype": "float32"}, {"name": "PartitionedCall/convolution_46/BatchToSpaceND/block_shape", "shape": [2], "dtype": "int32"}, {"name": "PartitionedCall/convolution_46/BatchToSpaceND/crops", "shape": [2, 2], "dtype": "int32"}, {"name": "unknown_92", "shape": [16], "dtype": "float32"}, {"name": "PartitionedCall/transpose_204/perm", "shape": [4], "dtype": "int32"}, {"name": "PartitionedCall/onnx_tf_prefix_Concat_421/axis", "shape": [], "dtype": "int32"}, {"name": "PartitionedCall/Const_178", "shape": [4, 2], "dtype": "int32"}, {"name": "PartitionedCall/transpose_215/perm", "shape": [4], "dtype": "int32"}, {"name": "PartitionedCall/convolution_50/SpaceToBatchND/block_shape", "shape": [2], "dtype": "int32"}, {"name": "PartitionedCall/convolution_50/SpaceToBatchND/paddings", "shape": [2, 2], "dtype": "int32"}, {"name": "PartitionedCall/split_100", "shape": [3, 3, 32, 16], "dtype": "float32"}, {"name": "PartitionedCall/convolution_50/BatchToSpaceND/block_shape", "shape": [2], "dtype": "int32"}, {"name": "PartitionedCall/convolution_50/BatchToSpaceND/crops", "shape": [2, 2], "dtype": "int32"}, {"name": "unknown_100", "shape": [16], "dtype": "float32"}, {"name": "PartitionedCall/transpose_216/perm", "shape": [4], "dtype": "int32"}, {"name": "PartitionedCall/Const_163", "shape": [4, 2], "dtype": "int32"}, {"name": "PartitionedCall/transpose_200/perm", "shape": [4], "dtype": "int32"}, {"name": "PartitionedCall/split_90", "shape": [3, 3, 64, 16], "dtype": "float32"}, {"name": "unknown_90", "shape": [16], "dtype": "float32"}, {"name": "PartitionedCall/transpose_201/perm", "shape": [4], "dtype": "int32"}, {"name": "PartitionedCall/onnx_tf_prefix_Concat_424/axis", "shape": [], "dtype": "int32"}, {"name": "PartitionedCall/Const_181", "shape": [4, 2], "dtype": "int32"}, {"name": "PartitionedCall/transpose_218/perm", "shape": [4], "dtype": "int32"}, {"name": "PartitionedCall/split_102", "shape": [3, 3, 32, 64], "dtype": "float32"}, {"name": "unknown_102", "shape": [64], "dtype": "float32"}, {"name": "PartitionedCall/transpose_219/perm", "shape": [4], "dtype": "int32"}, {"name": "PartitionedCall/Const_144", "shape": [4, 2], "dtype": "int32"}, {"name": "PartitionedCall/transpose_179/perm", "shape": [4], "dtype": "int32"}, {"name": "PartitionedCall/convolution_40/SpaceToBatchND/block_shape", "shape": [2], "dtype": "int32"}, {"name": "PartitionedCall/convolution_40/SpaceToBatchND/paddings", "shape": [2, 2], "dtype": "int32"}, {"name": "PartitionedCall/split_80", "shape": [3, 3, 16, 16], "dtype": "float32"}, {"name": "PartitionedCall/convolution_40/BatchToSpaceND/block_shape", "shape": [2], "dtype": "int32"}, {"name": "PartitionedCall/convolution_40/BatchToSpaceND/crops", "shape": [2, 2], "dtype": "int32"}, {"name": "unknown_80", "shape": [16], "dtype": "float32"}, {"name": "PartitionedCall/transpose_180/perm", "shape": [4], "dtype": "int32"}, {"name": "PartitionedCall/transpose_173/perm", "shape": [4], "dtype": "int32"}, {"name": "PartitionedCall/transpose_174/perm", "shape": [4], "dtype": "int32"}, {"name": "PartitionedCall/Const_141", "shape": [4, 2], "dtype": "int32"}, {"name": "PartitionedCall/transpose_176/perm", "shape": [4], "dtype": "int32"}, {"name": "PartitionedCall/split_78", "shape": [3, 3, 16, 16], "dtype": "float32"}, {"name": "unknown_78", "shape": [16], "dtype": "float32"}, {"name": "PartitionedCall/transpose_177/perm", "shape": [4], "dtype": "int32"}, {"name": "PartitionedCall/onnx_tf_prefix_Concat_357/axis", "shape": [], "dtype": "int32"}, {"name": "PartitionedCall/Const_147", "shape": [4, 2], "dtype": "int32"}, {"name": "PartitionedCall/transpose_182/perm", "shape": [4], "dtype": "int32"}, {"name": "PartitionedCall/split_82", "shape": [3, 3, 32, 16], "dtype": "float32"}, {"name": "unknown_82", "shape": [16], "dtype": "float32"}, {"name": "PartitionedCall/transpose_183/perm", "shape": [4], "dtype": "int32"}, {"name": "PartitionedCall/transpose_184/perm", "shape": [4], "dtype": "int32"}, {"name": "PartitionedCall/onnx_tf_prefix_Constant_369", "shape": [2], "dtype": "float32"}, {"name": "PartitionedCall/onnx_tf_prefix_Cast_370", "shape": [2], "dtype": "float32"}, {"name": "PartitionedCall/onnx_tf_prefix_Shape_371", "shape": [4], "dtype": "int32"}, {"name": "PartitionedCall/SelectV2_49", "shape": [1], "dtype": "int32"}, {"name": "PartitionedCall/zeros_12", "shape": [], "dtype": "int32"}, {"name": "PartitionedCall/Const_151", "shape": [], "dtype": "int32"}, {"name": "PartitionedCall/Shape_12", "shape": [1], "dtype": "int32"}, {"name": "PartitionedCall/ExpandDims_12", "shape": [1, 1], "dtype": "int32"}, {"name": "PartitionedCall/Cast_49", "shape": [1], "dtype": "int32"}, {"name": "PartitionedCall/SelectV2_50", "shape": [1], "dtype": "int32"}, {"name": "PartitionedCall/Const_150", "shape": [], "dtype": "int32"}, {"name": "PartitionedCall/ones_12", "shape": [1], "dtype": "int32"}, {"name": "PartitionedCall/onnx_tf_prefix_Concat_378/axis", "shape": [], "dtype": "int32"}, {"name": "PartitionedCall/strided_slice_12/stack", "shape": [1], "dtype": "int32"}, {"name": "PartitionedCall/strided_slice_12/stack_1", "shape": [1], "dtype": "int32"}, {"name": "PartitionedCall/strided_slice_12/stack_2", "shape": [1], "dtype": "int32"}, {"name": "PartitionedCall/Cast_50", "shape": [2], "dtype": "float32"}, {"name": "PartitionedCall/transpose_185/perm", "shape": [4], "dtype": "int32"}, {"name": "PartitionedCall/transpose_168/perm", "shape": [4], "dtype": "int32"}, {"name": "PartitionedCall/transpose_169/perm", "shape": [4], "dtype": "int32"}, {"name": "PartitionedCall/Const_138", "shape": [4, 2], "dtype": "int32"}, {"name": "PartitionedCall/transpose_171/perm", "shape": [4], "dtype": "int32"}, {"name": "PartitionedCall/split_76", "shape": [3, 3, 16, 16], "dtype": "float32"}, {"name": "unknown_76", "shape": [16], "dtype": "float32"}, {"name": "PartitionedCall/transpose_172/perm", "shape": [4], "dtype": "int32"}, {"name": "PartitionedCall/onnx_tf_prefix_Concat_380/axis", "shape": [], "dtype": "int32"}, {"name": "PartitionedCall/Const_152", "shape": [4, 2], "dtype": "int32"}, {"name": "PartitionedCall/transpose_187/perm", "shape": [4], "dtype": "int32"}, {"name": "PartitionedCall/split_84", "shape": [3, 3, 32, 16], "dtype": "float32"}, {"name": "unknown_84", "shape": [16], "dtype": "float32"}, {"name": "PartitionedCall/transpose_188/perm", "shape": [4], "dtype": "int32"}, {"name": "PartitionedCall/transpose_189/perm", "shape": [4], "dtype": "int32"}, {"name": "PartitionedCall/onnx_tf_prefix_Constant_392", "shape": [2], "dtype": "float32"}, {"name": "PartitionedCall/onnx_tf_prefix_Cast_393", "shape": [2], "dtype": "float32"}, {"name": "PartitionedCall/onnx_tf_prefix_Shape_394", "shape": [4], "dtype": "int32"}, {"name": "PartitionedCall/SelectV2_53", "shape": [1], "dtype": "int32"}, {"name": "PartitionedCall/zeros_13", "shape": [], "dtype": "int32"}, {"name": "PartitionedCall/Const_156", "shape": [], "dtype": "int32"}, {"name": "PartitionedCall/Shape_13", "shape": [1], "dtype": "int32"}, {"name": "PartitionedCall/ExpandDims_13", "shape": [1, 1], "dtype": "int32"}, {"name": "PartitionedCall/Cast_53", "shape": [1], "dtype": "int32"}, {"name": "PartitionedCall/SelectV2_54", "shape": [1], "dtype": "int32"}, {"name": "PartitionedCall/Const_155", "shape": [], "dtype": "int32"}, {"name": "PartitionedCall/ones_13", "shape": [1], "dtype": "int32"}, {"name": "PartitionedCall/onnx_tf_prefix_Concat_401/axis", "shape": [], "dtype": "int32"}, {"name": "PartitionedCall/strided_slice_13/stack", "shape": [1], "dtype": "int32"}, {"name": "PartitionedCall/strided_slice_13/stack_1", "shape": [1], "dtype": "int32"}, {"name": "PartitionedCall/strided_slice_13/stack_2", "shape": [1], "dtype": "int32"}, {"name": "PartitionedCall/Cast_54", "shape": [2], "dtype": "float32"}, {"name": "PartitionedCall/transpose_190/perm", "shape": [4], "dtype": "int32"}, {"name": "PartitionedCall/Const_135", "shape": [4, 2], "dtype": "int32"}, {"name": "PartitionedCall/transpose_166/perm", "shape": [4], "dtype": "int32"}, {"name": "PartitionedCall/split_74", "shape": [3, 3, 64, 16], "dtype": "float32"}, {"name": "unknown_74", "shape": [16], "dtype": "float32"}, {"name": "PartitionedCall/transpose_167/perm", "shape": [4], "dtype": "int32"}, {"name": "PartitionedCall/onnx_tf_prefix_Concat_403/axis", "shape": [], "dtype": "int32"}, {"name": "PartitionedCall/Const_157", "shape": [4, 2], "dtype": "int32"}, {"name": "PartitionedCall/transpose_192/perm", "shape": [4], "dtype": "int32"}, {"name": "PartitionedCall/split_86", "shape": [3, 3, 32, 64], "dtype": "float32"}, {"name": "unknown_86", "shape": [64], "dtype": "float32"}, {"name": "PartitionedCall/transpose_193/perm", "shape": [4], "dtype": "int32"}, {"name": "PartitionedCall/Const_111", "shape": [4, 2], "dtype": "int32"}, {"name": "PartitionedCall/transpose_140/perm", "shape": [4], "dtype": "int32"}, {"name": "PartitionedCall/convolution_31/SpaceToBatchND/block_shape", "shape": [2], "dtype": "int32"}, {"name": "PartitionedCall/convolution_31/SpaceToBatchND/paddings", "shape": [2, 2], "dtype": "int32"}, {"name": "PartitionedCall/split_62", "shape": [3, 3, 16, 16], "dtype": "float32"}, {"name": "PartitionedCall/convolution_31/BatchToSpaceND/block_shape", "shape": [2], "dtype": "int32"}, {"name": "PartitionedCall/convolution_31/BatchToSpaceND/crops", "shape": [2, 2], "dtype": "int32"}, {"name": "unknown_62", "shape": [16], "dtype": "float32"}, {"name": "PartitionedCall/transpose_141/perm", "shape": [4], "dtype": "int32"}, {"name": "PartitionedCall/transpose_134/perm", "shape": [4], "dtype": "int32"}, {"name": "PartitionedCall/transpose_135/perm", "shape": [4], "dtype": "int32"}, {"name": "PartitionedCall/Const_108", "shape": [4, 2], "dtype": "int32"}, {"name": "PartitionedCall/transpose_137/perm", "shape": [4], "dtype": "int32"}, {"name": "PartitionedCall/split_60", "shape": [3, 3, 16, 16], "dtype": "float32"}, {"name": "unknown_60", "shape": [16], "dtype": "float32"}, {"name": "PartitionedCall/transpose_138/perm", "shape": [4], "dtype": "int32"}, {"name": "PartitionedCall/onnx_tf_prefix_Concat_271/axis", "shape": [], "dtype": "int32"}, {"name": "PartitionedCall/Const_114", "shape": [4, 2], "dtype": "int32"}, {"name": "PartitionedCall/transpose_143/perm", "shape": [4], "dtype": "int32"}, {"name": "PartitionedCall/split_64", "shape": [3, 3, 32, 16], "dtype": "float32"}, {"name": "unknown_64", "shape": [16], "dtype": "float32"}, {"name": "PartitionedCall/transpose_144/perm", "shape": [4], "dtype": "int32"}, {"name": "PartitionedCall/transpose_145/perm", "shape": [4], "dtype": "int32"}, {"name": "PartitionedCall/onnx_tf_prefix_Constant_283", "shape": [2], "dtype": "float32"}, {"name": "PartitionedCall/onnx_tf_prefix_Cast_284", "shape": [2], "dtype": "float32"}, {"name": "PartitionedCall/onnx_tf_prefix_Shape_285", "shape": [4], "dtype": "int32"}, {"name": "PartitionedCall/SelectV2_37", "shape": [1], "dtype": "int32"}, {"name": "PartitionedCall/zeros_9", "shape": [], "dtype": "int32"}, {"name": "PartitionedCall/Const_118", "shape": [], "dtype": "int32"}, {"name": "PartitionedCall/Shape_9", "shape": [1], "dtype": "int32"}, {"name": "PartitionedCall/ExpandDims_9", "shape": [1, 1], "dtype": "int32"}, {"name": "PartitionedCall/Cast_37", "shape": [1], "dtype": "int32"}, {"name": "PartitionedCall/SelectV2_38", "shape": [1], "dtype": "int32"}, {"name": "PartitionedCall/Const_117", "shape": [], "dtype": "int32"}, {"name": "PartitionedCall/ones_9", "shape": [1], "dtype": "int32"}, {"name": "PartitionedCall/onnx_tf_prefix_Concat_292/axis", "shape": [], "dtype": "int32"}, {"name": "PartitionedCall/strided_slice_9/stack", "shape": [1], "dtype": "int32"}, {"name": "PartitionedCall/strided_slice_9/stack_1", "shape": [1], "dtype": "int32"}, {"name": "PartitionedCall/strided_slice_9/stack_2", "shape": [1], "dtype": "int32"}, {"name": "PartitionedCall/Cast_38", "shape": [2], "dtype": "float32"}, {"name": "PartitionedCall/transpose_146/perm", "shape": [4], "dtype": "int32"}, {"name": "PartitionedCall/transpose_129/perm", "shape": [4], "dtype": "int32"}, {"name": "PartitionedCall/transpose_130/perm", "shape": [4], "dtype": "int32"}, {"name": "PartitionedCall/Const_105", "shape": [4, 2], "dtype": "int32"}, {"name": "PartitionedCall/transpose_132/perm", "shape": [4], "dtype": "int32"}, {"name": "PartitionedCall/split_58", "shape": [3, 3, 16, 16], "dtype": "float32"}, {"name": "unknown_58", "shape": [16], "dtype": "float32"}, {"name": "PartitionedCall/transpose_133/perm", "shape": [4], "dtype": "int32"}, {"name": "PartitionedCall/onnx_tf_prefix_Concat_294/axis", "shape": [], "dtype": "int32"}, {"name": "PartitionedCall/Const_119", "shape": [4, 2], "dtype": "int32"}, {"name": "PartitionedCall/transpose_148/perm", "shape": [4], "dtype": "int32"}, {"name": "PartitionedCall/split_66", "shape": [3, 3, 32, 16], "dtype": "float32"}, {"name": "unknown_66", "shape": [16], "dtype": "float32"}, {"name": "PartitionedCall/transpose_149/perm", "shape": [4], "dtype": "int32"}, {"name": "PartitionedCall/transpose_150/perm", "shape": [4], "dtype": "int32"}, {"name": "PartitionedCall/onnx_tf_prefix_Constant_306", "shape": [2], "dtype": "float32"}, {"name": "PartitionedCall/onnx_tf_prefix_Cast_307", "shape": [2], "dtype": "float32"}, {"name": "PartitionedCall/onnx_tf_prefix_Shape_308", "shape": [4], "dtype": "int32"}, {"name": "PartitionedCall/SelectV2_41", "shape": [1], "dtype": "int32"}, {"name": "PartitionedCall/zeros_10", "shape": [], "dtype": "int32"}, {"name": "PartitionedCall/Const_123", "shape": [], "dtype": "int32"}, {"name": "PartitionedCall/Shape_10", "shape": [1], "dtype": "int32"}, {"name": "PartitionedCall/ExpandDims_10", "shape": [1, 1], "dtype": "int32"}, {"name": "PartitionedCall/Cast_41", "shape": [1], "dtype": "int32"}, {"name": "PartitionedCall/SelectV2_42", "shape": [1], "dtype": "int32"}, {"name": "PartitionedCall/Const_122", "shape": [], "dtype": "int32"}, {"name": "PartitionedCall/ones_10", "shape": [1], "dtype": "int32"}, {"name": "PartitionedCall/onnx_tf_prefix_Concat_315/axis", "shape": [], "dtype": "int32"}, {"name": "PartitionedCall/strided_slice_10/stack", "shape": [1], "dtype": "int32"}, {"name": "PartitionedCall/strided_slice_10/stack_1", "shape": [1], "dtype": "int32"}, {"name": "PartitionedCall/strided_slice_10/stack_2", "shape": [1], "dtype": "int32"}, {"name": "PartitionedCall/Cast_42", "shape": [2], "dtype": "float32"}, {"name": "PartitionedCall/transpose_151/perm", "shape": [4], "dtype": "int32"}, {"name": "PartitionedCall/transpose_124/perm", "shape": [4], "dtype": "int32"}, {"name": "PartitionedCall/transpose_125/perm", "shape": [4], "dtype": "int32"}, {"name": "PartitionedCall/Const_102", "shape": [4, 2], "dtype": "int32"}, {"name": "PartitionedCall/transpose_127/perm", "shape": [4], "dtype": "int32"}, {"name": "PartitionedCall/split_56", "shape": [3, 3, 16, 16], "dtype": "float32"}, {"name": "unknown_56", "shape": [16], "dtype": "float32"}, {"name": "PartitionedCall/transpose_128/perm", "shape": [4], "dtype": "int32"}, {"name": "PartitionedCall/onnx_tf_prefix_Concat_317/axis", "shape": [], "dtype": "int32"}, {"name": "PartitionedCall/Const_124", "shape": [4, 2], "dtype": "int32"}, {"name": "PartitionedCall/transpose_153/perm", "shape": [4], "dtype": "int32"}, {"name": "PartitionedCall/split_68", "shape": [3, 3, 32, 16], "dtype": "float32"}, {"name": "unknown_68", "shape": [16], "dtype": "float32"}, {"name": "PartitionedCall/transpose_154/perm", "shape": [4], "dtype": "int32"}, {"name": "PartitionedCall/transpose_155/perm", "shape": [4], "dtype": "int32"}, {"name": "PartitionedCall/onnx_tf_prefix_Constant_329", "shape": [2], "dtype": "float32"}, {"name": "PartitionedCall/onnx_tf_prefix_Cast_330", "shape": [2], "dtype": "float32"}, {"name": "PartitionedCall/onnx_tf_prefix_Shape_331", "shape": [4], "dtype": "int32"}, {"name": "PartitionedCall/SelectV2_45", "shape": [1], "dtype": "int32"}, {"name": "PartitionedCall/zeros_11", "shape": [], "dtype": "int32"}, {"name": "PartitionedCall/Const_128", "shape": [], "dtype": "int32"}, {"name": "PartitionedCall/Shape_11", "shape": [1], "dtype": "int32"}, {"name": "PartitionedCall/ExpandDims_11", "shape": [1, 1], "dtype": "int32"}, {"name": "PartitionedCall/Cast_45", "shape": [1], "dtype": "int32"}, {"name": "PartitionedCall/SelectV2_46", "shape": [1], "dtype": "int32"}, {"name": "PartitionedCall/Const_127", "shape": [], "dtype": "int32"}, {"name": "PartitionedCall/ones_11", "shape": [1], "dtype": "int32"}, {"name": "PartitionedCall/onnx_tf_prefix_Concat_338/axis", "shape": [], "dtype": "int32"}, {"name": "PartitionedCall/strided_slice_11/stack", "shape": [1], "dtype": "int32"}, {"name": "PartitionedCall/strided_slice_11/stack_1", "shape": [1], "dtype": "int32"}, {"name": "PartitionedCall/strided_slice_11/stack_2", "shape": [1], "dtype": "int32"}, {"name": "PartitionedCall/Cast_46", "shape": [2], "dtype": "float32"}, {"name": "PartitionedCall/transpose_156/perm", "shape": [4], "dtype": "int32"}, {"name": "PartitionedCall/Const_99", "shape": [4, 2], "dtype": "int32"}, {"name": "PartitionedCall/transpose_122/perm", "shape": [4], "dtype": "int32"}, {"name": "PartitionedCall/split_54", "shape": [3, 3, 64, 16], "dtype": "float32"}, {"name": "unknown_54", "shape": [16], "dtype": "float32"}, {"name": "PartitionedCall/transpose_123/perm", "shape": [4], "dtype": "int32"}, {"name": "PartitionedCall/onnx_tf_prefix_Concat_340/axis", "shape": [], "dtype": "int32"}, {"name": "PartitionedCall/Const_129", "shape": [4, 2], "dtype": "int32"}, {"name": "PartitionedCall/transpose_158/perm", "shape": [4], "dtype": "int32"}, {"name": "PartitionedCall/split_70", "shape": [3, 3, 32, 64], "dtype": "float32"}, {"name": "unknown_70", "shape": [64], "dtype": "float32"}, {"name": "PartitionedCall/transpose_159/perm", "shape": [4], "dtype": "int32"}, {"name": "PartitionedCall/Const_70", "shape": [4, 2], "dtype": "int32"}, {"name": "PartitionedCall/transpose_91/perm", "shape": [4], "dtype": "int32"}, {"name": "PartitionedCall/convolution_20/SpaceToBatchND/block_shape", "shape": [2], "dtype": "int32"}, {"name": "PartitionedCall/convolution_20/SpaceToBatchND/paddings", "shape": [2, 2], "dtype": "int32"}, {"name": "PartitionedCall/split_40", "shape": [3, 3, 16, 16], "dtype": "float32"}, {"name": "PartitionedCall/convolution_20/BatchToSpaceND/block_shape", "shape": [2], "dtype": "int32"}, {"name": "PartitionedCall/convolution_20/BatchToSpaceND/crops", "shape": [2, 2], "dtype": "int32"}, {"name": "unknown_40", "shape": [16], "dtype": "float32"}, {"name": "PartitionedCall/transpose_92/perm", "shape": [4], "dtype": "int32"}, {"name": "PartitionedCall/transpose_85/perm", "shape": [4], "dtype": "int32"}, {"name": "PartitionedCall/transpose_86/perm", "shape": [4], "dtype": "int32"}, {"name": "PartitionedCall/Const_67", "shape": [4, 2], "dtype": "int32"}, {"name": "PartitionedCall/transpose_88/perm", "shape": [4], "dtype": "int32"}, {"name": "PartitionedCall/split_38", "shape": [3, 3, 16, 16], "dtype": "float32"}, {"name": "unknown_38", "shape": [16], "dtype": "float32"}, {"name": "PartitionedCall/transpose_89/perm", "shape": [4], "dtype": "int32"}, {"name": "PartitionedCall/onnx_tf_prefix_Concat_159/axis", "shape": [], "dtype": "int32"}, {"name": "PartitionedCall/Const_73", "shape": [4, 2], "dtype": "int32"}, {"name": "PartitionedCall/transpose_94/perm", "shape": [4], "dtype": "int32"}, {"name": "PartitionedCall/split_42", "shape": [3, 3, 32, 16], "dtype": "float32"}, {"name": "unknown_42", "shape": [16], "dtype": "float32"}, {"name": "PartitionedCall/transpose_95/perm", "shape": [4], "dtype": "int32"}, {"name": "PartitionedCall/transpose_96/perm", "shape": [4], "dtype": "int32"}, {"name": "PartitionedCall/onnx_tf_prefix_Constant_171", "shape": [2], "dtype": "float32"}, {"name": "PartitionedCall/onnx_tf_prefix_Cast_172", "shape": [2], "dtype": "float32"}, {"name": "PartitionedCall/onnx_tf_prefix_Shape_173", "shape": [4], "dtype": "int32"}, {"name": "PartitionedCall/SelectV2_21", "shape": [1], "dtype": "int32"}, {"name": "PartitionedCall/zeros_5", "shape": [], "dtype": "int32"}, {"name": "PartitionedCall/Const_77", "shape": [], "dtype": "int32"}, {"name": "PartitionedCall/Shape_5", "shape": [1], "dtype": "int32"}, {"name": "PartitionedCall/ExpandDims_5", "shape": [1, 1], "dtype": "int32"}, {"name": "PartitionedCall/Cast_21", "shape": [1], "dtype": "int32"}, {"name": "PartitionedCall/SelectV2_22", "shape": [1], "dtype": "int32"}, {"name": "PartitionedCall/Const_76", "shape": [], "dtype": "int32"}, {"name": "PartitionedCall/ones_5", "shape": [1], "dtype": "int32"}, {"name": "PartitionedCall/onnx_tf_prefix_Concat_180/axis", "shape": [], "dtype": "int32"}, {"name": "PartitionedCall/strided_slice_5/stack", "shape": [1], "dtype": "int32"}, {"name": "PartitionedCall/strided_slice_5/stack_1", "shape": [1], "dtype": "int32"}, {"name": "PartitionedCall/strided_slice_5/stack_2", "shape": [1], "dtype": "int32"}, {"name": "PartitionedCall/Cast_22", "shape": [2], "dtype": "float32"}, {"name": "PartitionedCall/transpose_97/perm", "shape": [4], "dtype": "int32"}, {"name": "PartitionedCall/transpose_80/perm", "shape": [4], "dtype": "int32"}, {"name": "PartitionedCall/transpose_81/perm", "shape": [4], "dtype": "int32"}, {"name": "PartitionedCall/Const_64", "shape": [4, 2], "dtype": "int32"}, {"name": "PartitionedCall/transpose_83/perm", "shape": [4], "dtype": "int32"}, {"name": "PartitionedCall/split_36", "shape": [3, 3, 16, 16], "dtype": "float32"}, {"name": "unknown_36", "shape": [16], "dtype": "float32"}, {"name": "PartitionedCall/transpose_84/perm", "shape": [4], "dtype": "int32"}, {"name": "PartitionedCall/onnx_tf_prefix_Concat_182/axis", "shape": [], "dtype": "int32"}, {"name": "PartitionedCall/Const_78", "shape": [4, 2], "dtype": "int32"}, {"name": "PartitionedCall/transpose_99/perm", "shape": [4], "dtype": "int32"}, {"name": "PartitionedCall/split_44", "shape": [3, 3, 32, 16], "dtype": "float32"}, {"name": "unknown_44", "shape": [16], "dtype": "float32"}, {"name": "PartitionedCall/transpose_100/perm", "shape": [4], "dtype": "int32"}, {"name": "PartitionedCall/transpose_101/perm", "shape": [4], "dtype": "int32"}, {"name": "PartitionedCall/onnx_tf_prefix_Constant_194", "shape": [2], "dtype": "float32"}, {"name": "PartitionedCall/onnx_tf_prefix_Cast_195", "shape": [2], "dtype": "float32"}, {"name": "PartitionedCall/onnx_tf_prefix_Shape_196", "shape": [4], "dtype": "int32"}, {"name": "PartitionedCall/SelectV2_25", "shape": [1], "dtype": "int32"}, {"name": "PartitionedCall/zeros_6", "shape": [], "dtype": "int32"}, {"name": "PartitionedCall/Const_82", "shape": [], "dtype": "int32"}, {"name": "PartitionedCall/Shape_6", "shape": [1], "dtype": "int32"}, {"name": "PartitionedCall/ExpandDims_6", "shape": [1, 1], "dtype": "int32"}, {"name": "PartitionedCall/Cast_25", "shape": [1], "dtype": "int32"}, {"name": "PartitionedCall/SelectV2_26", "shape": [1], "dtype": "int32"}, {"name": "PartitionedCall/Const_81", "shape": [], "dtype": "int32"}, {"name": "PartitionedCall/ones_6", "shape": [1], "dtype": "int32"}, {"name": "PartitionedCall/onnx_tf_prefix_Concat_203/axis", "shape": [], "dtype": "int32"}, {"name": "PartitionedCall/strided_slice_6/stack", "shape": [1], "dtype": "int32"}, {"name": "PartitionedCall/strided_slice_6/stack_1", "shape": [1], "dtype": "int32"}, {"name": "PartitionedCall/strided_slice_6/stack_2", "shape": [1], "dtype": "int32"}, {"name": "PartitionedCall/Cast_26", "shape": [2], "dtype": "float32"}, {"name": "PartitionedCall/transpose_102/perm", "shape": [4], "dtype": "int32"}, {"name": "PartitionedCall/transpose_75/perm", "shape": [4], "dtype": "int32"}, {"name": "PartitionedCall/transpose_76/perm", "shape": [4], "dtype": "int32"}, {"name": "PartitionedCall/Const_61", "shape": [4, 2], "dtype": "int32"}, {"name": "PartitionedCall/transpose_78/perm", "shape": [4], "dtype": "int32"}, {"name": "PartitionedCall/split_34", "shape": [3, 3, 16, 16], "dtype": "float32"}, {"name": "unknown_34", "shape": [16], "dtype": "float32"}, {"name": "PartitionedCall/transpose_79/perm", "shape": [4], "dtype": "int32"}, {"name": "PartitionedCall/onnx_tf_prefix_Concat_205/axis", "shape": [], "dtype": "int32"}, {"name": "PartitionedCall/Const_83", "shape": [4, 2], "dtype": "int32"}, {"name": "PartitionedCall/transpose_104/perm", "shape": [4], "dtype": "int32"}, {"name": "PartitionedCall/split_46", "shape": [3, 3, 32, 16], "dtype": "float32"}, {"name": "unknown_46", "shape": [16], "dtype": "float32"}, {"name": "PartitionedCall/transpose_105/perm", "shape": [4], "dtype": "int32"}, {"name": "PartitionedCall/transpose_106/perm", "shape": [4], "dtype": "int32"}, {"name": "PartitionedCall/onnx_tf_prefix_Constant_217", "shape": [2], "dtype": "float32"}, {"name": "PartitionedCall/onnx_tf_prefix_Cast_218", "shape": [2], "dtype": "float32"}, {"name": "PartitionedCall/onnx_tf_prefix_Shape_219", "shape": [4], "dtype": "int32"}, {"name": "PartitionedCall/SelectV2_29", "shape": [1], "dtype": "int32"}, {"name": "PartitionedCall/zeros_7", "shape": [], "dtype": "int32"}, {"name": "PartitionedCall/Const_87", "shape": [], "dtype": "int32"}, {"name": "PartitionedCall/Shape_7", "shape": [1], "dtype": "int32"}, {"name": "PartitionedCall/ExpandDims_7", "shape": [1, 1], "dtype": "int32"}, {"name": "PartitionedCall/Cast_29", "shape": [1], "dtype": "int32"}, {"name": "PartitionedCall/SelectV2_30", "shape": [1], "dtype": "int32"}, {"name": "PartitionedCall/Const_86", "shape": [], "dtype": "int32"}, {"name": "PartitionedCall/ones_7", "shape": [1], "dtype": "int32"}, {"name": "PartitionedCall/onnx_tf_prefix_Concat_226/axis", "shape": [], "dtype": "int32"}, {"name": "PartitionedCall/strided_slice_7/stack", "shape": [1], "dtype": "int32"}, {"name": "PartitionedCall/strided_slice_7/stack_1", "shape": [1], "dtype": "int32"}, {"name": "PartitionedCall/strided_slice_7/stack_2", "shape": [1], "dtype": "int32"}, {"name": "PartitionedCall/Cast_30", "shape": [2], "dtype": "float32"}, {"name": "PartitionedCall/transpose_107/perm", "shape": [4], "dtype": "int32"}, {"name": "PartitionedCall/transpose_70/perm", "shape": [4], "dtype": "int32"}, {"name": "PartitionedCall/transpose_71/perm", "shape": [4], "dtype": "int32"}, {"name": "PartitionedCall/Const_58", "shape": [4, 2], "dtype": "int32"}, {"name": "PartitionedCall/transpose_73/perm", "shape": [4], "dtype": "int32"}, {"name": "PartitionedCall/split_32", "shape": [3, 3, 16, 16], "dtype": "float32"}, {"name": "unknown_32", "shape": [16], "dtype": "float32"}, {"name": "PartitionedCall/transpose_74/perm", "shape": [4], "dtype": "int32"}, {"name": "PartitionedCall/onnx_tf_prefix_Concat_228/axis", "shape": [], "dtype": "int32"}, {"name": "PartitionedCall/Const_88", "shape": [4, 2], "dtype": "int32"}, {"name": "PartitionedCall/transpose_109/perm", "shape": [4], "dtype": "int32"}, {"name": "PartitionedCall/split_48", "shape": [3, 3, 32, 16], "dtype": "float32"}, {"name": "unknown_48", "shape": [16], "dtype": "float32"}, {"name": "PartitionedCall/transpose_110/perm", "shape": [4], "dtype": "int32"}, {"name": "PartitionedCall/transpose_111/perm", "shape": [4], "dtype": "int32"}, {"name": "PartitionedCall/onnx_tf_prefix_Constant_240", "shape": [2], "dtype": "float32"}, {"name": "PartitionedCall/onnx_tf_prefix_Cast_241", "shape": [2], "dtype": "float32"}, {"name": "PartitionedCall/onnx_tf_prefix_Shape_242", "shape": [4], "dtype": "int32"}, {"name": "PartitionedCall/SelectV2_33", "shape": [1], "dtype": "int32"}, {"name": "PartitionedCall/zeros_8", "shape": [], "dtype": "int32"}, {"name": "PartitionedCall/Const_92", "shape": [], "dtype": "int32"}, {"name": "PartitionedCall/Shape_8", "shape": [1], "dtype": "int32"}, {"name": "PartitionedCall/ExpandDims_8", "shape": [1, 1], "dtype": "int32"}, {"name": "PartitionedCall/Cast_33", "shape": [1], "dtype": "int32"}, {"name": "PartitionedCall/SelectV2_34", "shape": [1], "dtype": "int32"}, {"name": "PartitionedCall/Const_91", "shape": [], "dtype": "int32"}, {"name": "PartitionedCall/ones_8", "shape": [1], "dtype": "int32"}, {"name": "PartitionedCall/onnx_tf_prefix_Concat_249/axis", "shape": [], "dtype": "int32"}, {"name": "PartitionedCall/strided_slice_8/stack", "shape": [1], "dtype": "int32"}, {"name": "PartitionedCall/strided_slice_8/stack_1", "shape": [1], "dtype": "int32"}, {"name": "PartitionedCall/strided_slice_8/stack_2", "shape": [1], "dtype": "int32"}, {"name": "PartitionedCall/Cast_34", "shape": [2], "dtype": "float32"}, {"name": "PartitionedCall/transpose_112/perm", "shape": [4], "dtype": "int32"}, {"name": "PartitionedCall/Const_55", "shape": [4, 2], "dtype": "int32"}, {"name": "PartitionedCall/transpose_68/perm", "shape": [4], "dtype": "int32"}, {"name": "PartitionedCall/split_30", "shape": [3, 3, 64, 16], "dtype": "float32"}, {"name": "unknown_30", "shape": [16], "dtype": "float32"}, {"name": "PartitionedCall/transpose_69/perm", "shape": [4], "dtype": "int32"}, {"name": "PartitionedCall/onnx_tf_prefix_Concat_251/axis", "shape": [], "dtype": "int32"}, {"name": "PartitionedCall/Const_93", "shape": [4, 2], "dtype": "int32"}, {"name": "PartitionedCall/transpose_114/perm", "shape": [4], "dtype": "int32"}, {"name": "PartitionedCall/split_50", "shape": [3, 3, 32, 64], "dtype": "float32"}, {"name": "unknown_50", "shape": [64], "dtype": "float32"}, {"name": "PartitionedCall/transpose_115/perm", "shape": [4], "dtype": "int32"}, {"name": "PartitionedCall/Const_21", "shape": [4, 2], "dtype": "int32"}, {"name": "PartitionedCall/transpose_32/perm", "shape": [4], "dtype": "int32"}, {"name": "PartitionedCall/convolution_7/SpaceToBatchND/block_shape", "shape": [2], "dtype": "int32"}, {"name": "PartitionedCall/convolution_7/SpaceToBatchND/paddings", "shape": [2, 2], "dtype": "int32"}, {"name": "PartitionedCall/split_14", "shape": [3, 3, 16, 16], "dtype": "float32"}, {"name": "PartitionedCall/convolution_7/BatchToSpaceND/block_shape", "shape": [2], "dtype": "int32"}, {"name": "PartitionedCall/convolution_7/BatchToSpaceND/crops", "shape": [2, 2], "dtype": "int32"}, {"name": "unknown_14", "shape": [16], "dtype": "float32"}, {"name": "PartitionedCall/transpose_33/perm", "shape": [4], "dtype": "int32"}, {"name": "PartitionedCall/transpose_26/perm", "shape": [4], "dtype": "int32"}, {"name": "PartitionedCall/transpose_27/perm", "shape": [4], "dtype": "int32"}, {"name": "PartitionedCall/Const_18", "shape": [4, 2], "dtype": "int32"}, {"name": "PartitionedCall/transpose_29/perm", "shape": [4], "dtype": "int32"}, {"name": "PartitionedCall/split_12", "shape": [3, 3, 16, 16], "dtype": "float32"}, {"name": "unknown_12", "shape": [16], "dtype": "float32"}, {"name": "PartitionedCall/transpose_30/perm", "shape": [4], "dtype": "int32"}, {"name": "PartitionedCall/onnx_tf_prefix_Concat_21/axis", "shape": [], "dtype": "int32"}, {"name": "PartitionedCall/Const_24", "shape": [4, 2], "dtype": "int32"}, {"name": "PartitionedCall/transpose_35/perm", "shape": [4], "dtype": "int32"}, {"name": "PartitionedCall/split_16", "shape": [3, 3, 32, 16], "dtype": "float32"}, {"name": "unknown_16", "shape": [16], "dtype": "float32"}, {"name": "PartitionedCall/transpose_36/perm", "shape": [4], "dtype": "int32"}, {"name": "PartitionedCall/transpose_37/perm", "shape": [4], "dtype": "int32"}, {"name": "PartitionedCall/onnx_tf_prefix_Constant_33", "shape": [2], "dtype": "float32"}, {"name": "PartitionedCall/onnx_tf_prefix_Cast_34", "shape": [2], "dtype": "float32"}, {"name": "PartitionedCall/onnx_tf_prefix_Shape_35", "shape": [4], "dtype": "int32"}, {"name": "PartitionedCall/SelectV2_1", "shape": [1], "dtype": "int32"}, {"name": "PartitionedCall/zeros", "shape": [], "dtype": "int32"}, {"name": "PartitionedCall/Const_28", "shape": [], "dtype": "int32"}, {"name": "PartitionedCall/Shape", "shape": [1], "dtype": "int32"}, {"name": "PartitionedCall/ExpandDims", "shape": [1, 1], "dtype": "int32"}, {"name": "PartitionedCall/Cast_1", "shape": [1], "dtype": "int32"}, {"name": "PartitionedCall/SelectV2_2", "shape": [1], "dtype": "int32"}, {"name": "PartitionedCall/Const_27", "shape": [], "dtype": "int32"}, {"name": "PartitionedCall/ones", "shape": [1], "dtype": "int32"}, {"name": "PartitionedCall/onnx_tf_prefix_Concat_42/axis", "shape": [], "dtype": "int32"}, {"name": "PartitionedCall/strided_slice/stack", "shape": [1], "dtype": "int32"}, {"name": "PartitionedCall/strided_slice/stack_1", "shape": [1], "dtype": "int32"}, {"name": "PartitionedCall/strided_slice/stack_2", "shape": [1], "dtype": "int32"}, {"name": "PartitionedCall/Cast_2", "shape": [2], "dtype": "float32"}, {"name": "PartitionedCall/transpose_38/perm", "shape": [4], "dtype": "int32"}, {"name": "PartitionedCall/transpose_21/perm", "shape": [4], "dtype": "int32"}, {"name": "PartitionedCall/transpose_22/perm", "shape": [4], "dtype": "int32"}, {"name": "PartitionedCall/Const_15", "shape": [4, 2], "dtype": "int32"}, {"name": "PartitionedCall/transpose_24/perm", "shape": [4], "dtype": "int32"}, {"name": "PartitionedCall/split_10", "shape": [3, 3, 16, 16], "dtype": "float32"}, {"name": "unknown_10", "shape": [16], "dtype": "float32"}, {"name": "PartitionedCall/transpose_25/perm", "shape": [4], "dtype": "int32"}, {"name": "PartitionedCall/onnx_tf_prefix_Concat_44/axis", "shape": [], "dtype": "int32"}, {"name": "PartitionedCall/Const_29", "shape": [4, 2], "dtype": "int32"}, {"name": "PartitionedCall/transpose_40/perm", "shape": [4], "dtype": "int32"}, {"name": "PartitionedCall/split_18", "shape": [3, 3, 32, 16], "dtype": "float32"}, {"name": "unknown_18", "shape": [16], "dtype": "float32"}, {"name": "PartitionedCall/transpose_41/perm", "shape": [4], "dtype": "int32"}, {"name": "PartitionedCall/transpose_42/perm", "shape": [4], "dtype": "int32"}, {"name": "PartitionedCall/onnx_tf_prefix_Constant_56", "shape": [2], "dtype": "float32"}, {"name": "PartitionedCall/onnx_tf_prefix_Cast_57", "shape": [2], "dtype": "float32"}, {"name": "PartitionedCall/onnx_tf_prefix_Shape_58", "shape": [4], "dtype": "int32"}, {"name": "PartitionedCall/SelectV2_5", "shape": [1], "dtype": "int32"}, {"name": "PartitionedCall/zeros_1", "shape": [], "dtype": "int32"}, {"name": "PartitionedCall/Const_33", "shape": [], "dtype": "int32"}, {"name": "PartitionedCall/Shape_1", "shape": [1], "dtype": "int32"}, {"name": "PartitionedCall/ExpandDims_1", "shape": [1, 1], "dtype": "int32"}, {"name": "PartitionedCall/Cast_5", "shape": [1], "dtype": "int32"}, {"name": "PartitionedCall/SelectV2_6", "shape": [1], "dtype": "int32"}, {"name": "PartitionedCall/Const_32", "shape": [], "dtype": "int32"}, {"name": "PartitionedCall/ones_1", "shape": [1], "dtype": "int32"}, {"name": "PartitionedCall/onnx_tf_prefix_Concat_65/axis", "shape": [], "dtype": "int32"}, {"name": "PartitionedCall/strided_slice_1/stack", "shape": [1], "dtype": "int32"}, {"name": "PartitionedCall/strided_slice_1/stack_1", "shape": [1], "dtype": "int32"}, {"name": "PartitionedCall/strided_slice_1/stack_2", "shape": [1], "dtype": "int32"}, {"name": "PartitionedCall/Cast_6", "shape": [2], "dtype": "float32"}, {"name": "PartitionedCall/transpose_43/perm", "shape": [4], "dtype": "int32"}, {"name": "PartitionedCall/transpose_16/perm", "shape": [4], "dtype": "int32"}, {"name": "PartitionedCall/transpose_17/perm", "shape": [4], "dtype": "int32"}, {"name": "PartitionedCall/Const_12", "shape": [4, 2], "dtype": "int32"}, {"name": "PartitionedCall/transpose_19/perm", "shape": [4], "dtype": "int32"}, {"name": "PartitionedCall/split_8", "shape": [3, 3, 16, 16], "dtype": "float32"}, {"name": "unknown_8", "shape": [16], "dtype": "float32"}, {"name": "PartitionedCall/transpose_20/perm", "shape": [4], "dtype": "int32"}, {"name": "PartitionedCall/onnx_tf_prefix_Concat_67/axis", "shape": [], "dtype": "int32"}, {"name": "PartitionedCall/Const_34", "shape": [4, 2], "dtype": "int32"}, {"name": "PartitionedCall/transpose_45/perm", "shape": [4], "dtype": "int32"}, {"name": "PartitionedCall/split_20", "shape": [3, 3, 32, 16], "dtype": "float32"}, {"name": "unknown_20", "shape": [16], "dtype": "float32"}, {"name": "PartitionedCall/transpose_46/perm", "shape": [4], "dtype": "int32"}, {"name": "PartitionedCall/transpose_47/perm", "shape": [4], "dtype": "int32"}, {"name": "PartitionedCall/onnx_tf_prefix_Constant_79", "shape": [2], "dtype": "float32"}, {"name": "PartitionedCall/onnx_tf_prefix_Cast_80", "shape": [2], "dtype": "float32"}, {"name": "PartitionedCall/onnx_tf_prefix_Shape_81", "shape": [4], "dtype": "int32"}, {"name": "PartitionedCall/SelectV2_9", "shape": [1], "dtype": "int32"}, {"name": "PartitionedCall/zeros_2", "shape": [], "dtype": "int32"}, {"name": "PartitionedCall/Const_38", "shape": [], "dtype": "int32"}, {"name": "PartitionedCall/Shape_2", "shape": [1], "dtype": "int32"}, {"name": "PartitionedCall/ExpandDims_2", "shape": [1, 1], "dtype": "int32"}, {"name": "PartitionedCall/Cast_9", "shape": [1], "dtype": "int32"}, {"name": "PartitionedCall/SelectV2_10", "shape": [1], "dtype": "int32"}, {"name": "PartitionedCall/Const_37", "shape": [], "dtype": "int32"}, {"name": "PartitionedCall/ones_2", "shape": [1], "dtype": "int32"}, {"name": "PartitionedCall/onnx_tf_prefix_Concat_88/axis", "shape": [], "dtype": "int32"}, {"name": "PartitionedCall/strided_slice_2/stack", "shape": [1], "dtype": "int32"}, {"name": "PartitionedCall/strided_slice_2/stack_1", "shape": [1], "dtype": "int32"}, {"name": "PartitionedCall/strided_slice_2/stack_2", "shape": [1], "dtype": "int32"}, {"name": "PartitionedCall/Cast_10", "shape": [2], "dtype": "float32"}, {"name": "PartitionedCall/transpose_48/perm", "shape": [4], "dtype": "int32"}, {"name": "PartitionedCall/transpose_11/perm", "shape": [4], "dtype": "int32"}, {"name": "PartitionedCall/transpose_12/perm", "shape": [4], "dtype": "int32"}, {"name": "PartitionedCall/Const_9", "shape": [4, 2], "dtype": "int32"}, {"name": "PartitionedCall/transpose_14/perm", "shape": [4], "dtype": "int32"}, {"name": "PartitionedCall/split_6", "shape": [3, 3, 16, 16], "dtype": "float32"}, {"name": "unknown_6", "shape": [16], "dtype": "float32"}, {"name": "PartitionedCall/transpose_15/perm", "shape": [4], "dtype": "int32"}, {"name": "PartitionedCall/onnx_tf_prefix_Concat_90/axis", "shape": [], "dtype": "int32"}, {"name": "PartitionedCall/Const_39", "shape": [4, 2], "dtype": "int32"}, {"name": "PartitionedCall/transpose_50/perm", "shape": [4], "dtype": "int32"}, {"name": "PartitionedCall/split_22", "shape": [3, 3, 32, 16], "dtype": "float32"}, {"name": "unknown_22", "shape": [16], "dtype": "float32"}, {"name": "PartitionedCall/transpose_51/perm", "shape": [4], "dtype": "int32"}, {"name": "PartitionedCall/transpose_52/perm", "shape": [4], "dtype": "int32"}, {"name": "PartitionedCall/onnx_tf_prefix_Constant_102", "shape": [2], "dtype": "float32"}, {"name": "PartitionedCall/onnx_tf_prefix_Cast_103", "shape": [2], "dtype": "float32"}, {"name": "PartitionedCall/onnx_tf_prefix_Shape_104", "shape": [4], "dtype": "int32"}, {"name": "PartitionedCall/SelectV2_13", "shape": [1], "dtype": "int32"}, {"name": "PartitionedCall/zeros_3", "shape": [], "dtype": "int32"}, {"name": "PartitionedCall/Const_43", "shape": [], "dtype": "int32"}, {"name": "PartitionedCall/Shape_3", "shape": [1], "dtype": "int32"}, {"name": "PartitionedCall/ExpandDims_3", "shape": [1, 1], "dtype": "int32"}, {"name": "PartitionedCall/Cast_13", "shape": [1], "dtype": "int32"}, {"name": "PartitionedCall/SelectV2_14", "shape": [1], "dtype": "int32"}, {"name": "PartitionedCall/Const_42", "shape": [], "dtype": "int32"}, {"name": "PartitionedCall/ones_3", "shape": [1], "dtype": "int32"}, {"name": "PartitionedCall/onnx_tf_prefix_Concat_111/axis", "shape": [], "dtype": "int32"}, {"name": "PartitionedCall/strided_slice_3/stack", "shape": [1], "dtype": "int32"}, {"name": "PartitionedCall/strided_slice_3/stack_1", "shape": [1], "dtype": "int32"}, {"name": "PartitionedCall/strided_slice_3/stack_2", "shape": [1], "dtype": "int32"}, {"name": "PartitionedCall/Cast_14", "shape": [2], "dtype": "float32"}, {"name": "PartitionedCall/transpose_53/perm", "shape": [4], "dtype": "int32"}, {"name": "PartitionedCall/transpose_6/perm", "shape": [4], "dtype": "int32"}, {"name": "PartitionedCall/transpose_7/perm", "shape": [4], "dtype": "int32"}, {"name": "PartitionedCall/Const_6", "shape": [4, 2], "dtype": "int32"}, {"name": "PartitionedCall/transpose_9/perm", "shape": [4], "dtype": "int32"}, {"name": "PartitionedCall/split_4", "shape": [3, 3, 16, 16], "dtype": "float32"}, {"name": "unknown_4", "shape": [16], "dtype": "float32"}, {"name": "PartitionedCall/transpose_10/perm", "shape": [4], "dtype": "int32"}, {"name": "PartitionedCall/onnx_tf_prefix_Concat_113/axis", "shape": [], "dtype": "int32"}, {"name": "PartitionedCall/Const_44", "shape": [4, 2], "dtype": "int32"}, {"name": "PartitionedCall/transpose_55/perm", "shape": [4], "dtype": "int32"}, {"name": "PartitionedCall/split_24", "shape": [3, 3, 32, 16], "dtype": "float32"}, {"name": "unknown_24", "shape": [16], "dtype": "float32"}, {"name": "PartitionedCall/transpose_56/perm", "shape": [4], "dtype": "int32"}, {"name": "PartitionedCall/transpose_57/perm", "shape": [4], "dtype": "int32"}, {"name": "PartitionedCall/onnx_tf_prefix_Constant_125", "shape": [2], "dtype": "float32"}, {"name": "PartitionedCall/onnx_tf_prefix_Cast_126", "shape": [2], "dtype": "float32"}, {"name": "PartitionedCall/onnx_tf_prefix_Shape_127", "shape": [4], "dtype": "int32"}, {"name": "PartitionedCall/SelectV2_17", "shape": [1], "dtype": "int32"}, {"name": "PartitionedCall/zeros_4", "shape": [], "dtype": "int32"}, {"name": "PartitionedCall/Const_48", "shape": [], "dtype": "int32"}, {"name": "PartitionedCall/Shape_4", "shape": [1], "dtype": "int32"}, {"name": "PartitionedCall/ExpandDims_4", "shape": [1, 1], "dtype": "int32"}, {"name": "PartitionedCall/Cast_17", "shape": [1], "dtype": "int32"}, {"name": "PartitionedCall/SelectV2_18", "shape": [1], "dtype": "int32"}, {"name": "PartitionedCall/Const_47", "shape": [], "dtype": "int32"}, {"name": "PartitionedCall/ones_4", "shape": [1], "dtype": "int32"}, {"name": "PartitionedCall/onnx_tf_prefix_Concat_134/axis", "shape": [], "dtype": "int32"}, {"name": "PartitionedCall/strided_slice_4/stack", "shape": [1], "dtype": "int32"}, {"name": "PartitionedCall/strided_slice_4/stack_1", "shape": [1], "dtype": "int32"}, {"name": "PartitionedCall/strided_slice_4/stack_2", "shape": [1], "dtype": "int32"}, {"name": "PartitionedCall/Cast_18", "shape": [2], "dtype": "float32"}, {"name": "PartitionedCall/transpose_58/perm", "shape": [4], "dtype": "int32"}, {"name": "PartitionedCall/Const_3", "shape": [4, 2], "dtype": "int32"}, {"name": "PartitionedCall/transpose_4/perm", "shape": [4], "dtype": "int32"}, {"name": "PartitionedCall/split_2", "shape": [3, 3, 64, 16], "dtype": "float32"}, {"name": "unknown_2", "shape": [16], "dtype": "float32"}, {"name": "PartitionedCall/transpose_5/perm", "shape": [4], "dtype": "int32"}, {"name": "PartitionedCall/onnx_tf_prefix_Concat_136/axis", "shape": [], "dtype": "int32"}, {"name": "PartitionedCall/Const_49", "shape": [4, 2], "dtype": "int32"}, {"name": "PartitionedCall/transpose_60/perm", "shape": [4], "dtype": "int32"}, {"name": "PartitionedCall/split_26", "shape": [3, 3, 32, 64], "dtype": "float32"}, {"name": "unknown_26", "shape": [64], "dtype": "float32"}, {"name": "PartitionedCall/transpose_61/perm", "shape": [4], "dtype": "int32"}, {"name": "PartitionedCall/Const", "shape": [4, 2], "dtype": "int32"}, {"name": "PartitionedCall/transpose_1/perm", "shape": [4], "dtype": "int32"}, {"name": "PartitionedCall/split", "shape": [3, 3, 3, 64], "dtype": "float32"}, {"name": "unknown_0", "shape": [64], "dtype": "float32"}, {"name": "PartitionedCall/transpose_2/perm", "shape": [4], "dtype": "int32"}, {"name": "PartitionedCall/transpose_62/perm", "shape": [4], "dtype": "int32"}, {"name": "PartitionedCall/transpose_63/perm", "shape": [4], "dtype": "int32"}, {"name": "PartitionedCall/Const_52", "shape": [4, 2], "dtype": "int32"}, {"name": "PartitionedCall/transpose_65/perm", "shape": [4], "dtype": "int32"}, {"name": "PartitionedCall/split_28", "shape": [3, 3, 64, 64], "dtype": "float32"}, {"name": "unknown_28", "shape": [64], "dtype": "float32"}, {"name": "PartitionedCall/transpose_66/perm", "shape": [4], "dtype": "int32"}, {"name": "PartitionedCall/transpose_116/perm", "shape": [4], "dtype": "int32"}, {"name": "PartitionedCall/transpose_117/perm", "shape": [4], "dtype": "int32"}, {"name": "PartitionedCall/Const_96", "shape": [4, 2], "dtype": "int32"}, {"name": "PartitionedCall/transpose_119/perm", "shape": [4], "dtype": "int32"}, {"name": "PartitionedCall/split_52", "shape": [3, 3, 64, 64], "dtype": "float32"}, {"name": "unknown_52", "shape": [64], "dtype": "float32"}, {"name": "PartitionedCall/transpose_120/perm", "shape": [4], "dtype": "int32"}, {"name": "PartitionedCall/transpose_160/perm", "shape": [4], "dtype": "int32"}, {"name": "PartitionedCall/transpose_161/perm", "shape": [4], "dtype": "int32"}, {"name": "PartitionedCall/Const_132", "shape": [4, 2], "dtype": "int32"}, {"name": "PartitionedCall/transpose_163/perm", "shape": [4], "dtype": "int32"}, {"name": "PartitionedCall/split_72", "shape": [3, 3, 64, 64], "dtype": "float32"}, {"name": "unknown_72", "shape": [64], "dtype": "float32"}, {"name": "PartitionedCall/transpose_164/perm", "shape": [4], "dtype": "int32"}, {"name": "PartitionedCall/transpose_194/perm", "shape": [4], "dtype": "int32"}, {"name": "PartitionedCall/transpose_195/perm", "shape": [4], "dtype": "int32"}, {"name": "PartitionedCall/Const_160", "shape": [4, 2], "dtype": "int32"}, {"name": "PartitionedCall/transpose_197/perm", "shape": [4], "dtype": "int32"}, {"name": "PartitionedCall/split_88", "shape": [3, 3, 64, 64], "dtype": "float32"}, {"name": "unknown_88", "shape": [64], "dtype": "float32"}, {"name": "PartitionedCall/transpose_198/perm", "shape": [4], "dtype": "int32"}, {"name": "PartitionedCall/transpose_220/perm", "shape": [4], "dtype": "int32"}, {"name": "PartitionedCall/transpose_221/perm", "shape": [4], "dtype": "int32"}, {"name": "PartitionedCall/Const_184", "shape": [4, 2], "dtype": "int32"}, {"name": "PartitionedCall/transpose_223/perm", "shape": [4], "dtype": "int32"}, {"name": "PartitionedCall/split_104", "shape": [3, 3, 64, 64], "dtype": "float32"}, {"name": "unknown_104", "shape": [64], "dtype": "float32"}, {"name": "PartitionedCall/transpose_224/perm", "shape": [4], "dtype": "int32"}, {"name": "PartitionedCall/Const_425", "shape": [4, 2], "dtype": "int32"}, {"name": "PartitionedCall/transpose_492/perm", "shape": [4], "dtype": "int32"}, {"name": "PartitionedCall/split_234", "shape": [3, 3, 64, 1], "dtype": "float32"}, {"name": "unknown_234", "shape": [1], "dtype": "float32"}, {"name": "PartitionedCall/onnx_tf_prefix_Constant_1073", "shape": [2], "dtype": "float32"}, {"name": "PartitionedCall/onnx_tf_prefix_Cast_1074", "shape": [2], "dtype": "float32"}, {"name": "PartitionedCall/onnx_tf_prefix_Shape_1075", "shape": [4], "dtype": "int32"}, {"name": "PartitionedCall/SelectV2_149", "shape": [1], "dtype": "int32"}, {"name": "PartitionedCall/zeros_37", "shape": [], "dtype": "int32"}, {"name": "PartitionedCall/Const_429", "shape": [], "dtype": "int32"}, {"name": "PartitionedCall/Shape_37", "shape": [1], "dtype": "int32"}, {"name": "PartitionedCall/ExpandDims_37", "shape": [1, 1], "dtype": "int32"}, {"name": "PartitionedCall/Cast_149", "shape": [1], "dtype": "int32"}, {"name": "PartitionedCall/SelectV2_150", "shape": [1], "dtype": "int32"}, {"name": "PartitionedCall/Const_428", "shape": [], "dtype": "int32"}, {"name": "PartitionedCall/ones_37", "shape": [1], "dtype": "int32"}, {"name": "PartitionedCall/onnx_tf_prefix_Concat_1082/axis", "shape": [], "dtype": "int32"}, {"name": "PartitionedCall/strided_slice_37/stack", "shape": [1], "dtype": "int32"}, {"name": "PartitionedCall/strided_slice_37/stack_1", "shape": [1], "dtype": "int32"}, {"name": "PartitionedCall/strided_slice_37/stack_2", "shape": [1], "dtype": "int32"}, {"name": "PartitionedCall/Cast_150", "shape": [2], "dtype": "float32"}, {"name": "PartitionedCall/transpose_495/perm", "shape": [4], "dtype": "int32"}]}]}